main_Cdk/data/model_Circadian_equant_v1.pkl (torch, 781954 bytes, 181 tensors)

w f8 [1]
00000000: 656d bac8 60dc d03f
0.2634508095013273

enc.net.0.weight f8 [32, 16]
00000000: 0e24 1935 0916 b93f 4334 14ef d1ba bcbf
00000010: 35a5 2a09 2ce9 ccbf 8be4 2cca 9e0b c6bf
00000020: 0573 8fc1 0acd c73f 2f6d 8077 afeb 8c3f
00000030: c7d8 4aee ec60 a13f 1010 9b7d be25 bd3f
00000040: 9d73 f5ae 6a87 7b3f 0d02 3ea6 ec57 c13f
00000050: 3293 a2dd 119c a53f e267 9380 0f13 b83f
00000060: bd05 91cf f094 a4bf 03f0 cf87 54dd b23f
00000070: c352 d682 167c ab3f 8d8c cd31 186f ba3f
00000080: cf22 bce3 edb4 8d3f 5844 4839 c4b8 d13f
00000090: 8cbf 4ba2 1b9b 90bf f19e 814d 8c04 c93f
000000a0: 46fd 7fe8 0d6b c13f 5eb3 0fb8 72e6 ca3f
000000b0: bbb8 fd42 b0d9 b1bf 96b2 88b2 771b a9bf
000000c0: 2968 6c93 ac3c bbbf b4ed 1428 1fb9 af3f
000000d0: c9df 4c84 3b5a d7bf 4367 e194 2c65 8ebf
000000e0: 1f51 26d4 f6a5 b63f d969 6e47 3189 b23f
000000f0: 102d 6538 1e9d b33f ddf8 b51f 4572 c9bf
00000100: d6db a50d 4abc b4bf 845a 1a19 9516 ad3f
00000110: b1fb d674 b43a a5bf 1b2d 1b37 a088 b3bf
00000120: 4cb9 87a3 fccb b43f bc11 6db9 75ea 9ebf
00000130: 125a 8d42 35f3 d3bf f49a 5f97 d1e6 cc3f
00000140: ff38 303d 420b dbbf 3ff2 b943 f1f6 90bf
00000150: 62c4 0b1d dd13 cabf e089 516a 4c97 6fbf
00000160: d6c6 5452 8a64 b53f 2708 d190 a8c1 ca3f
00000170: b372 7f49 2fe0 cbbf 33aa 44e8 a4b8 d1bf
00000180: 7ce3 2404 a97e b33f b803 f95c 919c a8bf
00000190: b44f 0075 0935 b63f f908 33d7 4476 ae3f
000001a0: 6887 d22b 16e1 aebf 6fcf 9444 bdb3 bdbf
000001b0: 5fee e3c5 979b c93f 1bca c631 dcba afbf
000001c0: 64d9 162d 145e be3f 4fa8 5ac3 e54e ba3f
000001d0: ca25 626e 25cf d23f e4fc f85e 4f45 c2bf
000001e0: fd76 a33c 2d03 af3f 7101 0cf3 0289 6abf
000001f0: a313 4100 38df 94bf bb1e 5a6a f3ef c63f
00000200: 9590 7de9 c9cc b23f 6b5d 84b3 1923 b43f
00000210: c420 ec08 bbca a33f 6211 73e3 0940 9e3f
00000220: c10c 00d0 934d babf 8f2d 68d2 1121 9ebf
00000230: e075 90be 5d58 b73f 6b8e 20e7 4a9d ba3f
00000240: 7028 18e9 c2a4 b9bf fd9a da8f 8f52 ba3f
00000250: c354 0c67 f514 b4bf e212 2102 1b8c cc3f
00000260: 536f c3a7 8183 acbf 4004 7d65 13d9 c0bf
00000270: 72ce 1275 88d6 cc3f 685f 7908 bed8 b7bf
00000280: bb9e 7a7d 194e a0bf e1b5 c91d eedf af3f
00000290: e1c9 74ac 441b b2bf 2204 b8b5 9602 be3f
000002a0: 60a2 e99f 5005 c0bf 19bf dbc6 b7e9 aebf
000002b0: 945f 5242 ef65 c0bf bdcb 65e3 a0c0 c5bf
000002c0: b380 aaae ec31 a8bf 1e7b 82e3 1d91 cebf
000002d0: 1d9c 2dce 28cb b4bf 59fe 87e9 bdde b93f
000002e0: 8686 9747 a0f1 b43f d691 84ce 174a bfbf
000002f0: c411 8080 1f74 af3f afc1 188e 1aec c6bf
00000300: 14e7 a2e8 376d a1bf f317 5511 12e3 bd3f
00000310: 1c09 966b 719d 8f3f 301c be04 c92c babf
00000320: 886e b8ad 59ec cbbf 8282 2be4 0f65 9ebf
00000330: 78c9 d99c c83b a73f 192b ed75 ddbf bfbf
00000340: 8943 a8a6 bd80 a73f ab1a 8f62 3aa8 b73f
00000350: a0f9 d2b4 a6b2 a93f 225a 8fb5 451d 9a3f
00000360: 88bd 4de1 a036 bebf 4ae5 533f 41ad b1bf
00000370: 05d0 069c e68d bcbf e141 4409 c690 b13f
00000380: 13a5 d393 f01e ccbf d6f6 cd12 d3a1 b0bf
00000390: 3587 7b14 410e c73f 6445 4029 11f4 b63f
000003a0: 6e04 0445 be51 c03f 94e7 bca2 9e8b 7abf
000003b0: 15e7 656d 0ffe a7bf a1cc 7ef2 47c6 903f
000003c0: 716c e9d2 c11b c03f 1a80 1f7d 67ed bf3f
000003d0: 319c 4e8e 844a a23f 13f2 d359 7a4b b7bf
000003e0: 6e8b dc06 997d 63bf 55bc aa45 e324 a53f
000003f0: 258a 4ce0 41d5 c63f 8f4e 0615 7fd2 91bf
00000400: b4c1 9d10 e7da b3bf f8d2 4048 c213 81bf
00000410: f3b6 87dd 0e1d be3f cc5b 4bae 9625 80bf
00000420: f733 8ad4 ae57 b93f fa59 3699 64cb 9e3f
00000430: 97a0 e26f 287e 8a3f cbf1 3945 d1e0 b93f
00000440: 55d1 ecec 959f 7cbf cea0 a436 35c8 a23f
00000450: 06c4 905f d127 b43f be89 e45b 69cd d13f
00000460: 2e4e fd19 b2da b53f dce6 e15f 0dde c5bf
00000470: fcb8 08d2 4a60 a33f 794c 64c8 b261 d0bf
00000480: fcc5 353c 1776 c2bf c3e9 27da 6274 c4bf
00000490: ea87 16a2 3b8b ccbf 50ff abbd 69d2 c8bf
000004a0: a9ae 56ed ef4d c33f 212b d6cc e2b2 b23f
000004b0: de04 0d8e 2da0 d03f 7777 43d5 74f5 973f
000004c0: d84e 8f24 4b5c d03f 0e4b d2bf 8a1d c33f
000004d0: f025 cf96 a44a d93f a5b4 1cf9 e18e b53f
000004e0: 2ec6 1678 726d a93f 06ba 59f0 58fd 52bf
000004f0: a2da ad17 dd05 94bf 3bf5 b131 11b7 d03f
00000500: 7de4 c858 3a0a a8bf 0b67 abd2 84d6 b7bf
00000510: e3e5 7b36 2ab2 bb3f dfc4 3623 51e8 9dbf
00000520: 8671 6c8d 300e 9fbf c974 63e6 91b8 bcbf
00000530: 3c5e 478a 843f c4bf e9d7 5b59 4900 b7bf
00000540: 284a ebcf fedc c9bf e9b1 594e cda9 75bf
00000550: 9ba1 1542 a2fb b1bf 503e c291 243f b53f
00000560: 678d e762 07ad b63f 5145 38ca 509e b13f
00000570: 85ba 6fd0 b28d bebf 0460 93d4 9fc5 8ebf
00000580: c565 a773 ead2 a73f 7db0 e078 63da b43f
00000590: 29be e98c 0b20 af3f 7841 6fe4 1ffe b83f
000005a0: 1e21 28b8 dc19 c33f 86df 4b03 6615 c23f
000005b0: 6c8a 6e50 d751 aabf 391a 3081 a178 a63f
000005c0: fca7 fb6b 551b c9bf 21a9 752f 7ece bebf
000005d0: 9a1a 4219 fe86 85bf 233d 324e f406 c0bf
000005e0: 87dd 5328 7797 bfbf 3c5b 0a7a 08db 913f
000005f0: 2453 6a64 af82 87bf b844 c85d 7620 99bf
00000600: ee7d a5a1 2083 b2bf a587 3935 f413 b4bf
00000610: 9aee 2874 9474 bbbf a9e5 1a24 7575 c9bf
00000620: 55a5 770d 02b0 c7bf b5a8 d7a8 c385 b23f
00000630: 6665 01ea 923b d93f 125e 7617 ab96 b43f
00000640: 0489 36d4 5f9d d03f 4157 d4d9 b099 a03f
00000650: 8c57 2999 3d5e bf3f f473 abcb 983e 8bbf
00000660: 038f d1f3 4cda a7bf f6f3 f6d3 4885 9fbf
00000670: bde4 b1aa 6f58 79bf 0660 b4bd 0bc0 b43f
00000680: c915 a648 dab4 8ebf f7cd cd73 800e adbf
00000690: 8c26 b6ef e702 bc3f d9a6 b423 99d7 80bf
000006a0: 4daf f094 6263 ba3f acb6 d2da 22a4 adbf
000006b0: 43b3 2f05 f74c c43f 674f 71a2 6dae b23f
000006c0: 623b 7b52 1f31 593f 9001 041b 87db c5bf
000006d0: 16ac bd8c 1cf0 9ebf 8ab3 93a4 9dab bdbf
000006e0: cd39 e42b a82c c63f a423 ae4c 7f55 95bf
000006f0: 4954 54c2 cfbb 653f 827f 9bf0 c9eb 95bf
00000700: fd82 5247 8275 ba3f 4a78 db7a d410 acbf
00000710: 4fa7 547c dc4e bd3f 3476 de6f a85d b0bf
00000720: 20c3 43cb a9b0 9cbf 3151 bc6f d323 b8bf
00000730: c472 676c 8f78 babf b171 b01d a893 a0bf
00000740: 11e3 a76b a9c6 b8bf 681a 7542 c679 a8bf
00000750: 1203 42f5 b466 b1bf acdb 367d a2e8 c4bf
00000760: 64b5 a2d1 cfed b7bf 6d36 6c9c 8e75 a83f
00000770: 5615 549c 9ad9 a5bf 31f2 d296 af0a c0bf
00000780: 4cc8 ff41 ac90 513f 07b8 4296 9a73 973f
00000790: 006c 73ca bbbe 93bf 663d 881a e279 7c3f
000007a0: 1d30 ad63 3b62 643f aaab e915 ce2b 9ebf
000007b0: 3744 bd9e e518 8cbf e5da 49de 48b1 9cbf
000007c0: dd33 3133 c984 ba3f 49e8 358a 449e c83f
000007d0: 3cc2 e4ab db6d aa3f 18fc 4fa3 b031 ba3f
000007e0: 898c 51c5 170f d0bf 7ab9 f9be 17e3 a7bf
000007f0: d015 0fed 7d1e acbf 1971 e56a cacf c7bf
0.09799249216406755 -0.11222564780128245 -0.22586584518038824 -0.1722296225723635 0.1859448857420817 0.014121409258271626 0.03394260796396647 0.11385717932267903
0.006720940334472039 0.1354957401017746 0.04220634298807226 0.0940408409982463 -0.040198827111918224 0.07368973079422862 0.053681090804422314 0.1032576676930594
0.014505251419465818 0.27690225213979636 -0.01621668985438833 0.1954512957047352 0.13607953884636909 0.21015771853799498 -0.0697279132416239 -0.04903768591279804
-0.10639456366735146 0.061959241526405334 -0.3648823539729134 -0.01484141187045263 0.0884699123328727 0.07240589136055266 0.07661618115269087 -0.19879974411373427
-0.08099806626510939 0.05681291514809053 -0.041463507902782644 -0.07630349488606607 0.0812375926250059 -0.03019126838923268 -0.3117192411349673 0.2257940281990255
-0.4225621793310807 -0.016567010649384036 -0.20373119276294732 -0.003856324432988986 0.08356537351644575 0.20903498717422161 -0.2177790745617095 -0.2768947857136112
0.07615143157171461 -0.04806951770706952 0.08674677950358395 0.05949607016511211 -0.06031102452222009 -0.11602385448787599 0.2000608173619751 -0.06197250468848755
0.11862302876293068 0.10276638049495655 0.2938932016337189 -0.1427401746495668 0.06057111134735569 -0.0032391603093630474 -0.02038276197005796 0.1791977185532597
0.07343732786609032 0.07866058953037729 0.03865608676830015 0.029541162974753184 -0.10274623706941367 -0.02942302557680204 0.09119211103867242 0.10396259444001436
-0.10017030897884793 0.1028222776609304 -0.07844480291199134 0.22302568057980127 -0.05569081471341399 -0.13162462668882036 0.2252970286987082 -0.09315097529304028
-0.03184585243917356 0.062255326400968654 -0.07072858057362154 0.11722700058454952 -0.12516219909891202 -0.06037687590094105 -0.12811079729430885 -0.16994105437660592
-0.04725589401391641 -0.23880361183997761 -0.081224966370073 0.10105502082296293 0.08181192157601389 -0.12222431938113884 0.06143282359701943 -0.17908031404796307
-0.034036395214071785 0.11674607203630653 0.015437017532125945 -0.10224586835657656 -0.21815033895915215 -0.029682396222485703 0.04537798800164955 -0.12402137879432153
0.04590408954039222 0.09241070657945254 0.05019112546277715 0.025502289969006615 -0.11802106381013833 -0.06904990955435611 -0.11154023465388725 0.06861531950222101
-0.2196942064104311 -0.06496924599738504 0.18012250423549295 0.08966166741472176 0.1274946057310759 -0.006480807943995876 -0.04686020098138336 0.016381382156123284
0.1258470802157237 0.12471625141870427 0.03572477566859112 -0.09099545186104079 -0.0023792256169072245 0.04129705644060581 0.17838309719179893 -0.017404542597047764
-0.07755893855733725 -0.00833846838950468 0.11763089092684335 -0.00788419455913738 0.09899418534241976 0.030072757579171473 0.012935939707247974 0.10108669223877269
-0.006988130232276586 0.03668371479062814 0.07873257239477036 0.27816232656382656 0.08536828169354102 -0.17083899671324942 0.03784402669804085 -0.2559630352927296
-0.1442288440699001 -0.15980182315963817 -0.22299905218557053 -0.19392129670449743 0.15081595505522685 0.07304208279508063 0.25977648613122806 0.023397279278348528
0.2556331498173967 0.14933904997140995 0.3951808426614596 0.08421146709288736 0.049663140448853546 -0.0011590355437892676 -0.019553618021257997 0.26117353299180807
-0.046953032815914654 -0.0931170477228102 0.1081873305337449 -0.02920653130940287 -0.03032756674939343 -0.11219131350249535 -0.15818840743917117 -0.08984812194452697
-0.2020567431669218 -0.005288888909131797 -0.07024587739363712 0.0829947334152561 0.08857771076832464 0.06882195412642501 -0.11934964741497296 -0.015025376009745635
0.04653103505888682 0.08145734501948883 0.060791359854985245 0.0976276333524363 0.14922675125149792 0.14127803002315548 -0.051405647819838446 0.04388909055710539
-0.1961466576825045 -0.1203383317821687 -0.0105113841493794 -0.12521222894836467 -0.1234049294906666 0.017437107514150826 -0.011479730846340859 -0.02453789660836911
-0.07231334635206796 -0.07842947291785991 -0.10724761806425889 -0.19889702094023434 -0.18505883843981033 0.07235358116273256 0.3942611012658602 0.08042401621639098
0.25960536693504843 0.03242256793070775 0.12253174771589509 -0.013302987781054633 -0.046587376368533405 -0.03078187745790114 -0.006187854956004543 0.08105538732013437
-0.014993386594833862 -0.05675126470205421 0.10941934206325693 -0.008223720934057809 0.10307899605021227 -0.057892884456447774 0.1585987830470917 0.07297406402477478
0.0015375905876912834 -0.17076195544360617 -0.030212827768462423 -0.11589989917747637 0.17323782103672017 -0.020833958678426648 0.0026530320925624335 -0.021407275496016627
0.10335554353015293 -0.0548159027073188 0.11448457751671735 -0.06392910700966398 -0.028017666846554268 -0.09429666021271 -0.10340210339149808 -0.032376531242536706
-0.09678133848491323 -0.0478040653347776 -0.06797343242397982 -0.16334944833735443 -0.0934724699788681 0.0477718892999349 -0.04267581136995584 -0.12532610763982313
0.001072090359226968 0.022901931210689976 -0.0192822782818034 0.006952174393986743 0.002488246912809812 -0.02946397789711922 -0.013719362170066514 -0.028020037238515
0.10358865260896218 0.19232994793475403 0.05161940072355661 0.10232070910568358 -0.25092119473828994 -0.04665445524448138 -0.05492013472352719 -0.1860287687258129

enc.net.0.bias f8 [32]
00000000: 8047 0e4b ebac 5dbf 3bd6 ee02 caad 28bf
00000010: b5b5 cbc3 9574 9dbf f47b eff9 f954 a13f
00000020: 042f c0f3 4ca5 85bf 1e49 39a4 eac2 9abf
00000030: 003d 1867 bdc4 8a3f f7a2 1f47 596a 6d3f
00000040: 0dc5 b1e3 89a8 4d3f 9e63 64f1 3f46 aa3f
00000050: 89c0 d283 c30b 90bf 7f44 5ee6 7d86 833f
00000060: 9619 42b3 024d 7f3f 5550 9368 1a9a 873f
00000070: dd96 bf82 f2e6 4a3f 01e7 6856 1f44 a3bf
00000080: 202e 12db 6f84 90bf bcb4 cf1f 42cd a13f
00000090: 8545 5869 b607 a83f 205b 693b 155a 8ebf
000000a0: b739 4f69 97f1 883f 897b 5ae4 6b7f 753f
000000b0: a093 b592 95f6 5abf 0912 0b0e 1a7e 9bbf
000000c0: afcf 2500 2ec3 83bf 48b0 feae c67a 83bf
000000d0: 2621 c1de b5bc bdbf 1fee 8a3e 0e5f a93f
000000e0: 6c4d 0d2d 116c 2b3f fd0f 5f3e 357b 90bf
000000f0: f3fd 5435 3667 a73f 63eb 06fb 7017 8f3f
-0.001811246660711835 -0.00018828478775183448 -0.028765049052642506 0.03385144401521947 -0.010569192112618982 -0.02613417270033224 0.01307056399221418 0.003590750094179969
0.0009051011360396169 0.051317213265242176 -0.015669875069477732 0.009533866493969477 0.007641802356494051 0.011524397198094652 0.0008209880957081545 -0.037629107759540766
-0.01613020681956645 0.034769121535512565 0.04693384204814336 -0.014820257068249243 0.012179549123087037 0.005248471692225539 -0.0016457043337478675 -0.02684822760308417
-0.009649619464404539 -0.009511520591182557 -0.11616074264850748 0.04955334199391025 0.0002092143027093528 -0.016095001155704825 0.045709318170789624 0.015181429539429641

enc.net.2.weight f8 [32, 32]
00000000: 7601 b164 ce9c c23f c1b3 8250 2425 a83f
00000010: eef4 ce71 6d4e 7cbf 5abc 7658 d901 c93f
00000020: a388 ea06 5d48 bd3f 7d02 c61f 8824 5f3f
00000030: 74d4 b9c1 2746 b6bf 3f0a c4f4 79cc a3bf
00000040: 9f93 dcf8 7a73 aabf 7ab8 4fc7 3dee 96bf
00000050: 64db feae 7a16 c73f 6bce 0404 cd64 c13f
00000060: 07bc 6c0b 03e6 c1bf 0e36 d3b5 db71 833f
00000070: 97e1 6a5b 6664 c6bf 51a7 d3ce ab95 ae3f
00000080: ee08 3d85 0815 943f a486 db9d 29c1 9fbf
00000090: 739c 1b05 656a b63f b906 37fd a902 8dbf
000000a0: e75c 4108 7f4f b6bf 6e2e 9516 8b22 b33f
000000b0: 6201 d153 837c bcbf ce5e dfef 48cb b43f
000000c0: 1ad1 9f6a ab9c bdbf 583a 44c7 5525 a13f
000000d0: 06d5 71cd 73af 8f3f 958e bd56 e131 a4bf
000000e0: b607 7a33 7028 a83f ead9 3d30 777c 96bf
000000f0: 5246 2160 6e54 c5bf 09c5 969c 0517 b03f
00000100: 8782 2775 bc09 9cbf fd50 85ba d39f a73f
00000110: 32ca 74f7 720f 9abf dd7c ac35 e77f b7bf
00000120: 943f 4eb1 17e1 993f 97b7 bc41 07f3 5ebf
00000130: b0b4 72bd 0964 c13f b190 2d8f 25e5 b7bf
00000140: e3eb ac69 491d b83f 698d bf51 79c2 cabf
00000150: f104 a479 75f6 ca3f d8ea a42f 47f3 a03f
00000160: 685a 75fe 9d3d 91bf a1a5 39fb d8e1 b5bf
00000170: 35a8 357b aa03 903f 613a 962f d2d2 bc3f
00000180: 36d3 b90f c09a a2bf 033f 4612 1844 c8bf
00000190: e3d5 7948 ed00 c1bf c1d7 f61a 9a29 bb3f
000001a0: d3cd 90aa 444e a73f a3f9 fb5e 000f 86bf
000001b0: 23c4 2b7a 30be 753f 6fd4 cdb4 3603 c1bf
000001c0: 604b f49a ae05 91bf 6b8f 0726 4e26 c6bf
000001d0: ff3e 4100 00a4 aebf 180a 7d6b ceed a3bf
000001e0: a61b 6098 a63d 58bf a2e8 2dab 7f38 bfbf
000001f0: b3f4 3262 01cb 9c3f c28a 2582 613e b5bf
00000200: 7fda 40ba ea0c 9fbf a949 f082 1d3a a1bf
00000210: 5c9c 1e15 8b4f ae3f cefe 819c a708 a83f
00000220: 7e5f b869 a24f 9e3f 52f1 88c7 3cd3 b4bf
00000230: 3f53 213a fabf a6bf 2b5d 57a9 f968 c7bf
00000240: 7830 ae9d ba33 b33f d175 aa4a 31ea babf
00000250: 315c bf03 6928 bb3f 0074 18fe 4f7b 76bf
00000260: 7789 e4e2 c704 c0bf fa2c 57cc 4445 a2bf
00000270: c189 a20f 10b2 48bf ef5e 87b3 987b bc3f
00000280: 2a2e 3515 f04c bc3f 8f4c 18c1 6f95 c1bf
00000290: 4cba 75a5 5189 a73f 0753 102c 0d14 c53f
000002a0: eb78 47b9 d4cd abbf 32bb e3a9 aa5a a03f
000002b0: ebb8 64a7 eceb 903f 5f42 b56d 0876 c8bf
000002c0: 68bb 174e 2f74 b93f 4c43 2943 2c18 b3bf
000002d0: 607e 1b3c 3c4f d13f d3d0 4b21 d9c0 c5bf
000002e0: df42 4eff 73fa b0bf a05a 556d ece1 c0bf
000002f0: deb1 059d 9f4b c2bf 08ab 960c 0b30 c53f
00000300: db9e 6e34 864a c8bf 2383 fce1 f1c5 963f
00000310: 2d31 3886 2bc7 b0bf 9d9f a23c fc1c a83f
00000320: de79 76cc 2ffc bebf a593 c4b3 cc68 98bf
00000330: fa1e 9ae5 c887 c63f 66e3 db1d f04f c93f
00000340: ab61 3091 2077 c63f 68ce 42e1 47f1 cb3f
00000350: e0c4 d219 620a cbbf 048c 4c8b 8744 a9bf
00000360: 4b0b 9476 bdcd a9bf 61f9 9c24 da61 c53f
00000370: 17c8 2963 7ab6 a33f b73a 8a07 8c70 a5bf
00000380: 02d1 7aeb 895e aebf 743f d383 c9f8 a33f
00000390: f0fb a7be 157b 9dbf 1a32 2bc4 06dc 703f
000003a0: 1df2 9bcb bd6a 953f ee3f 433b 1c84 81bf
000003b0: 9ad7 35ea 32fb b23f c0d7 b40d 2421 b33f
000003c0: 8165 035f 2dbb bbbf b801 5522 5667 d1bf
000003d0: b85e b81f 370e c0bf 6998 73b1 3147 a4bf
000003e0: 7a77 4e29 7c50 73bf 0a3c 8ab1 1592 9bbf
000003f0: c26b 08c8 35d1 c53f de1e f044 37ee b63f
00000400: 2410 960b 2d85 a1bf 1a8e 0329 b711 bd3f
00000410: 47a0 cf25 c7b0 d0bf d403 709a ea9a c43f
00000420: aefa 60c2 fbe0 d13f 4062 1cf7 580f a7bf
00000430: 8703 f913 7137 883f 3ef9 6a70 44d8 b03f
00000440: 2e7e d6c3 1455 d33f fa37 d4f0 3761 c43f
00000450: 694d 4611 6134 c6bf 44ed f3e8 904e b43f
00000460: 8f36 00ed 6d71 a53f 0f4e a26a 6573 b73f
00000470: 6dec 1bab 3125 9f3f d62b 1164 87f3 b6bf
00000480: 06f9 76b5 16e6 b0bf 9261 02e7 ed74 c0bf
00000490: 1e33 147b f69d 95bf f6ad 8119 1a00 c9bf
000004a0: d786 2b17 4a1c a4bf 86b3 b739 c9d5 c13f
000004b0: 99de d4e8 8342 96bf 1a34 186e bd36 c8bf
000004c0: 4796 1561 13a3 a0bf e878 ec64 4cb8 af3f
000004d0: 43b0 8f28 980b c33f dc47 5fdf 252b a73f
000004e0: d590 fc75 9512 b03f 650d 3141 81b9 b4bf
000004f0: 5d43 79ff 1847 97bf 665c 4e30 2f79 b13f
00000500: 7245 89fd ae11 b53f f49e 1858 e2e5 9fbf
00000510: b5e0 93bd 9dc0 ca3f 1bf2 8e09 dba0 c0bf
00000520: 7e76 5d96 7542 b5bf 686a e4d2 bbf9 c0bf
00000530: 8077 9e02 646c cfbf 4098 66af fff5 9c3f
00000540: d6e8 5cfc bfeb d03f 131c 465f 94a3 c1bf
00000550: 6e95 f0cd eff5 983f 8f0f 3a1b 0711 a7bf
00000560: 6bba ca4c f4bd c13f db2b fc4a 9f13 c1bf
00000570: 81ff ec23 af6a bcbf 50f9 47d1 4b41 bcbf
00000580: b5ac 164b d6cd b1bf fbde 1ff5 9ddd c9bf
00000590: c3b5 402c a2d0 a83f 23d3 8d74 85f4 813f
000005a0: 222a 82eb e48e c93f 2c7f 0d0a e903 a9bf
000005b0: 6ee5 e4c3 3939 bf3f 6e38 fccd 57cf cabf
000005c0: 74af f1ca 1fa5 b3bf a964 fd19 1e0b 9fbf
000005d0: 96d8 e9a7 af4a c23f 7eae f3d5 71b5 a6bf
000005e0: 1ce5 3e37 e518 bb3f e724 9647 7b14 c13f
000005f0: ac31 d111 91cd ba3f c5b8 9b40 865b 9e3f
00000600: 8748 c47f 8601 b93f 5649 123f ce29 9fbf
00000610: 582b ec3b 947a c43f 5dfd 4990 4b5e b03f
00000620: 3d94 f573 b064 b53f df3c e796 351c babf
00000630: b60e 7076 4dba a4bf 2188 5030 7f56 b8bf
00000640: 48cd e4e5 4dc5 a93f 224b 70cb 73be a8bf
00000650: e47c 7cea 3ffe 92bf db30 4a3f f3bb bfbf
00000660: 6df0 0c8b 29f4 bf3f d158 7c14 7e74 c13f
00000670: ce97 da3a 6b1a ba3f 685e ccab 3744 b5bf
00000680: 836e ae74 2a65 d53f aaeb 830d be22 afbf
00000690: 1aeb 2386 840c bf3f 05f2 2415 ce88 a43f
000006a0: 1635 72c9 5bb5 c6bf e5e7 f32e 3a9a a9bf
000006b0: 845c 769c a0e4 97bf fe3c 45f1 05b7 c43f
000006c0: 0c8b 8bad 2edf b93f 10dc b125 7d09 c4bf
000006d0: fab5 8c6f c99c 873f 4cd3 7b40 fff0 c63f
000006e0: a2cd 578c 8ab0 723f fdd9 264c 6878 bd3f
000006f0: a441 5267 b525 c33f 719a e83d 05e3 c2bf
00000700: 73de c6c8 d4cc acbf d619 da6a 66f2 ab3f
00000710: 7f2e cfb2 b948 ae3f 5f43 ac9f 0393 a83f
00000720: bc21 c072 0ea0 b13f 43f4 0a2b 6f38 b73f
00000730: 521a be39 7426 c2bf f13a 9278 c4f0 c3bf
00000740: 4a56 7894 6eb7 c03f f2a7 11f9 1341 c0bf
00000750: ee26 b17d 0e52 ad3f aaec 6849 8ba5 a1bf
00000760: e181 5f2d 9688 c7bf 3f23 06a0 4a2a b03f
00000770: 141c 7dd4 b5dc b33f b453 9d5f 4939 c8bf
00000780: b027 2557 9e02 b7bf 728d dfda ebad c1bf
00000790: 8e7b b81b d6ee bc3f c1d8 53b0 005d 743f
000007a0: 1f40 169e 974a bcbf 47ee 2398 80cf aabf
000007b0: e595 9882 cede bcbf b9ab fc1d 4366 a83f
000007c0: 0f4b 1613 b8ef a2bf 9074 6a8b c359 a83f
000007d0: b227 1999 532c 73bf 5b02 f3b3 4d0d bdbf
000007e0: a3a3 1dac 1f6e a33f eea6 d373 aa64 a33f
000007f0: b452 26cc eecb abbf 1fd6 e32c 16db d03f
0.1454103461892477 0.047158369853924416 -0.00691073180945277 0.19536892718812987 0.11438542765475516 0.0019007996880590343 -0.08700798492084677 -0.03866940605987112
-0.05166229522573151 -0.022393193521502465 0.18037351174072136 0.1358886975882457 -0.13983190591667968 0.00949451111446378 -0.1749389597296271 0.05973565006008975
0.019611485607364303 -0.031010294208391756 0.08756095289901271 -0.014165237464911372 -0.08715051604791633 0.0747458391317026 -0.1112749175672483 0.0812268815637893
-0.11567183831340735 0.03348796899273471 0.015471367556737291 -0.039443055952486684 0.04718351963403171 -0.021959173507150632 -0.16663913434836047 0.062851286630366
-0.0273808905129749 0.046141258734367675 -0.02544955859520765 -0.09179539738078142 0.02527272243202068 -0.0018889971606301564 0.1358654189147379 -0.09334025140339254
0.09419688062636981 -0.20905987254728167 0.21064632834899258 0.033106064382499134 -0.016836613326939448 -0.08547741063525517 0.015638984460942324 0.11259187375819969
-0.03633690063444421 -0.18957806484512937 -0.1328407863508537 0.10610354574495685 0.04551901418781381 -0.010770800493898508 0.00530833183687299 -0.13291057422944472
-0.01662323780790176 -0.17304398400221585 -0.05984497073279548 -0.0389236932956189 -0.001479542437211137 -0.12195585183318028 0.02811815416201986 -0.08298310687454616
-0.03032271158027777 -0.03364650939342379 0.05920061714942257 0.04694103036399398 0.029600656225823745 -0.08134822722872073 -0.04443342170330888 -0.18289109009376978
0.07500807141895105 -0.10513599465271929 0.10608536092273436 -0.0054886936864280145 -0.12514589861627787 -0.03568472856894718 -0.0007536486075603797 0.11126093276049763
0.11054897802130684 -0.13737294128859331 0.045969535300959125 0.16467442180205458 -0.054304740540588835 0.03194173168036797 0.016524980275044603 -0.1911020789798554
0.09942908913192883 -0.07458759917905161 0.2704611384378719 -0.169947758920563 -0.06632161124276646 -0.13189463938279733 -0.14293284575559445 0.16552866091418417
-0.18977429924165432 0.022239474695314187 -0.0655390932735755 0.04709614029098861 -0.12103556386725908 -0.023837278816376224 0.17601882182156442 0.19775201280551896
0.17551047410303275 0.21830080508299265 -0.21125437031654482 -0.04935096335818659 -0.05039779732216817 0.1670487097525877 0.03850157223213573 -0.04187429039040096
-0.05931502341755569 0.03900747045702149 -0.02878984428570769 0.004116083555981942 0.020914998581235012 -0.00855276161055937 0.07414549081826607 0.07472443899754833
-0.10832484788570264 -0.2719321570657729 -0.12543381737554227 -0.03960566798359439 -0.0047154283573983494 -0.026924456559353195 0.17044708506804623 0.0895723861032098
-0.03421917692597301 0.11355156661334612 -0.26078966801151576 0.16097767392059714 0.2793568990927423 -0.04503896728983081 0.011824496671694508 0.06579997772766874
0.30206793904105467 0.15921687373378274 -0.1734734854077076 0.07932382285428213 0.0418810226256997 0.0916045556389735 0.030415321415585717 -0.08965345566791369
-0.06601087503711164 -0.12856839923621216 -0.02111039282049198 -0.1953156113189462 -0.03927833111607775 0.13933673208466874 -0.0217381106242259 -0.18917053104124265
-0.032494168854821974 0.061952960319318795 0.1487913320592061 0.04525106765471751 0.06278356676608905 -0.08095558015434319 -0.022732153504253606 0.06825537614200669
0.08230107965325376 -0.031150375964130242 0.20900317913743086 -0.12990892378537996 -0.08304533883116424 -0.13262126729462698 -0.24549532058602708 0.028282160835850556
0.26438903469865005 -0.13780455257457955 0.024375674194876344 -0.04505178649290464 0.13860944509129366 -0.13341132317904578 -0.1110028708180817 -0.11037134036448504
-0.06954707463471517 -0.2020757147690729 0.04846674719042767 0.008767168635793582 0.1996732854789381 -0.04885795829500092 0.1219669440514701 -0.2094526057994161
-0.07673834519090211 -0.030315847717564157 0.14290424059771983 -0.044353062979863175 0.1058486232640416 0.13343754764017676 0.10469919857968674 0.029646012967469177
0.09767952555947278 -0.030432913398337057 0.15999081540970894 0.06393883011513908 0.08356764632260734 -0.10199294027482918 -0.04048387594960216 -0.09506983689837557
0.05033343726463585 -0.04832803591138758 -0.018548010527521877 -0.12396164221917465 0.12481937069691336 0.1363675689723949 0.10196561991560246 -0.08307216591162503
0.3342996730295697 -0.06081193842870587 0.12128475451383416 0.04010623939618444 -0.17740962349163486 -0.050004785758531324 -0.023333081769660882 0.16183542519363664
0.10106174218121228 -0.15653957691731124 0.011529515949940883 0.1792296471463949 0.004562894062007857 0.1151185213010208 0.14958827538476982 -0.1475531151092642
-0.05625023795022068 0.054583740752650975 0.059148600652034304 0.0479966289914333 0.06884851743246306 0.09070486832475048 -0.14179852313482627 -0.1557851399160977
0.13059789895548796 -0.12698602353640315 0.05726666721655059 -0.03446612616650076 -0.18385579314691738 0.06314531714282355 0.07758652150833739 -0.18924824875526058
-0.08988370540205781 -0.13812015711946973 0.11301935364507029 0.004971506777328994 -0.11051318749946447 -0.052364367076702716 -0.11277476013545813 0.04765519848873318
-0.03698516114231697 0.04755984379628686 -0.004680944971889577 -0.113484245713161 0.03794955230734522 0.037877394331941136 -0.054290258808724984 0.26337198623454755

enc.net.2.bias f8 [32]
00000000: 7ef9 2482 5bb9 33bf e146 ed61 01dd 84bf
00000010: 6b2d 7316 9c34 8dbf 6f6e 2781 c26a 5dbf
00000020: 409e d943 ea72 903f bce5 2e4f f058 393f
00000030: 9c23 d18a d168 673f 83cb 7a46 1979 84bf
00000040: a4d0 24c0 29d2 65bf 0239 7769 4fa3 533f
00000050: 91c8 3100 12c6 7a3f 204d faa4 deb8 413f
00000060: 90bc c0dd c828 763f 8adb 977f adb5 8ebf
00000070: f281 3027 18a9 a13f eeb5 c0f6 0418 73bf
00000080: 913d 52f1 111b 6c3f 8d30 67f0 9fb6 9fbf
00000090: ab35 3cfc e83f 763f f635 4992 c19a 9cbf
000000a0: e2d5 f415 be9a 743f 36af 1f73 1407 723f
000000b0: 3c00 3ba3 d24a 6dbf 3d64 9032 df6c 53bf
000000c0: 7fcc fd68 c0e3 663f c2e2 cf95 35d4 a93f
000000d0: 4689 b08e a46c 43bf 3791 3b26 5151 803f
000000e0: 75e6 70c3 e751 613f b672 3e21 f4a2 8fbf
000000f0: a692 36a1 127e 803f 2ff9 fb78 fc5f 8ebf
-0.0003009651574251911 -0.01018715934847897 -0.014260501322857796 -0.0017954730470738608 0.016063366309394533 0.0003867708866739058 0.0028575985548155557 -0.009996602500313539
-0.002663690132203982 0.0011986041553089803 0.006536550822703672 0.0005408370143008857 0.0054099890076450136 -0.014994960266433006 0.03449321249377481 -0.004661578550480423
0.0034308767740822217 -0.0309700956802748 0.005432043169787996 -0.02793409781798136 0.005030386469390776 0.004401283151292115 -0.0035757173553463677 -0.0011856250441779758
0.0027941473016937497 0.050447153604130004 -0.0005927852156484635 0.007967599849003732 0.0021142508153644776 -0.015447528137707205 0.008052964730106037 -0.014831516687533323

enc.net.4.weight f8 [2, 32]
00000000: 09c6 ad9d 9abb 8bbf e8ae 6054 33c8 cc3f
00000010: 4cc3 4107 9605 ac3f 5062 4f3c a668 773f
00000020: 674e e15b aee5 c6bf 3ede c9d0 4998 aebf
00000030: 269b d1b4 2904 c3bf 17ac a17e 86b6 be3f
00000040: 08c5 c284 5055 c73f f5f9 4e48 5098 b6bf
00000050: 62d5 dfd2 09b2 bbbf 7c5a fc57 7d77 933f
00000060: 7b04 ed05 0f59 c1bf 7ea7 846d 7f4e bd3f
00000070: 21b2 f803 d9ba a9bf 2338 50d7 d754 b93f
00000080: 8d71 e85f 0052 b1bf 1fd3 1e23 095f bf3f
00000090: 9384 978a de3c a63f 120f 0b20 742c 803f
000000a0: 966b 3aa7 3479 c3bf 8d9b 32f5 6bd0 c6bf
000000b0: 2e76 602c 4beb c33f 48fd 0aad f043 a6bf
000000c0: ec8c c040 cb43 913f 3686 eb63 e356 b6bf
000000d0: 5b37 3a7a 6de3 bd3f 994e db0d 0fd3 b6bf
000000e0: d0b1 5c18 a11e c4bf 8be1 8166 c744 cf3f
000000f0: af86 1d58 881f bfbf 49d9 06d1 340b b23f
00000100: e7e3 e54f feb5 bb3f d058 d10a 8d32 aa3f
00000110: b21b 17d8 9249 ba3f c10b db0d 33e1 c7bf
00000120: 2958 bdfd 90d1 afbf f2f4 261d 3f7f 853f
00000130: 267c de5f c339 9abf 591e 4111 f5dc b23f
00000140: d205 fd89 04da b9bf e720 64dd 7527 b03f
00000150: b81f 1a83 279c c5bf 24f4 973b 7302 c7bf
00000160: c4dd 7b8b 1406 bd3f 232d 039c 0910 ba3f
00000170: 5cce 804a 4bc5 81bf 1223 576c 2618 97bf
00000180: 8170 b417 74d7 c53f cfdf 13f8 43a9 b43f
00000190: fb9d 47e8 4bd0 b83f 03a6 2cb9 1cc1 8d3f
000001a0: 5b8a 0a46 ca57 c83f b9a6 f928 1926 b83f
000001b0: 9f2d 98e9 ab04 c0bf 8cce 5a5d 3d0b c0bf
000001c0: 4bd2 22fa 7ae7 c93f cd69 0bb3 96c1 aabf
000001d0: b069 534f ae62 c9bf a379 1968 1d02 82bf
000001e0: 7c53 d45b be46 c43f b92f 1f98 72b8 be3f
000001f0: 85c7 f554 f147 883f b956 146c 04f3 c33f
-0.013541419922805014 0.224859634590181 0.05473011816582715 0.005715035779723168 -0.17888431059201368 -0.05975561784447024 -0.14856454209367448 0.11997261611547604
0.18229109270536292 -0.08826162114471699 -0.10818539999293855 0.019010504241203638 -0.13553035535190702 0.11447903083594999 -0.05025365994911036 0.09895085341142411
-0.06765749303344233 0.1225438795798479 0.04343314592166183 0.007897288539772816 -0.15213640370788245 -0.17823552582305205 0.15561809222065065 -0.043487092135814864
0.016860175921590434 -0.0872633093781808 0.1167515204817539 -0.08915800178811607 -0.15718473138384903 0.24428646569482412 -0.12157489920857743 0.07048349478904926
0.10824574900279026 0.05116692311337234 0.10268514419213551 -0.18656004120393102 -0.062145739530635354 0.010496609761384754 -0.025610974050888434 0.07368404074906588
-0.10098293656212512 0.06310211806351483 -0.16882795239894022 -0.17976227197496641 0.1133740273033857 0.10180721339127223 -0.008677089892535843 -0.022553062784740403
0.17063761861288998 0.0807077866228376 0.09692835255520287 0.014528488541674106 0.19017914218882734 0.09433133364077663 -0.12514256387690367 -0.12534300859771397
0.20237672055886188 -0.05225821433642217 -0.1983240020116006 -0.008793096293797492 0.15840892299516074 0.12000194753562611 0.011855969815517184 0.15585379864994822

enc.net.4.bias f8 [2]
00000000: 58e9 696f f434 81bf 13e9 4dcf 5973 3e3f
-0.008401784563137824 0.0004646391164936519

dec.net.0.weight f8 [32, 2]
00000000: 3a32 1363 736f d33f 5de3 7971 74b0 bebf
00000010: ef88 8f6d 7b5d cabf e25c 6be5 93ae d23f
00000020: bc17 15ef efde c7bf 7224 f639 ebd2 d03f
00000030: 7eee e6df e698 db3f 8445 6445 301f b33f
00000040: b107 773a e47c c13f 7974 6ab3 951d d53f
00000050: 7a59 215f eee1 bfbf de80 69de 919b db3f
00000060: c7ae b34a 3048 d7bf 410e 541f 8919 b53f
00000070: 4622 5d5e 94fb d33f 6897 7a1f e75c bfbf
00000080: bc42 9228 9fa0 b73f e595 b5c8 57d0 d93f
00000090: 15cc e6b0 fbe3 d4bf 3416 625f 00a8 c33f
000000a0: c4ac 6c7f c4b7 c8bf 400c 3dfb 5547 d6bf
000000b0: 6306 5349 7562 d63f 5bb4 2278 f818 c8bf
000000c0: 8880 efab 4775 d5bf 035e dbe3 3d11 abbf
000000d0: 05a6 33d8 5fd1 dabf a711 d3c6 1491 c63f
000000e0: 8c84 8f39 5abd d4bf bbbf 0759 29b3 c93f
000000f0: 8113 f81c d0e2 d23f 92de d0bf f5b6 e03f
00000100: 941e d1c4 b55e d7bf 8139 c984 d774 e3bf
00000110: d4bb a912 ead4 d73f 4113 7a0c 863a bcbf
00000120: b66c 2aa8 4d49 cb3f 0ecc 50dc c105 e03f
00000130: 5523 c114 5dec bfbf 4d87 789f c8bf 96bf
00000140: 4e19 3284 8bb8 d8bf a868 6b52 fbec b33f
00000150: 6575 4e2c 792d d33f ca5e 7066 1ad7 c5bf
00000160: 691e 4aae 5963 da3f e7d0 c253 141d d3bf
00000170: 7de9 6c25 a275 c13f 442c 8411 604b d33f
00000180: b014 45b4 fe2d d33f d50c c483 ac1a b1bf
00000190: c2d2 ce01 e9bf d03f 5c82 4f4c be86 df3f
000001a0: 2466 ac49 5878 b6bf 18bb 8f2b 945c d53f
000001b0: 2124 df3a 3671 90bf 7c0e c1af 20bd b43f
000001c0: be64 481d e9bb cebf d3f3 78c1 2f9a dfbf
000001d0: 5a20 f56c 5312 b6bf 1500 05e9 78a4 d43f
000001e0: b76f ef72 e489 95bf 68c3 1980 b65f d63f
000001f0: f7fa 68a1 0054 833f 1228 2d01 f769 dbbf
0.3036774127511169 -0.1198799874345133 -0.20597784852640852 0.2919053783820812 -0.18649100469536772 0.2628734651594363 0.4312073885482518 0.07469464964039757
0.13662388663038663 0.3299307109935579 -0.1245411855937614 0.4313702270501504 -0.36378104491334934 0.08242089285709488 0.31223019805159813 -0.12251133459593933
0.09229464283476835 0.40334124184150105 -0.32641498828451293 0.15356449754124102 -0.19310814115428887 -0.34810399565703065 0.34975940857484583 -0.1882620417212902
-0.33528320112782994 -0.05286591917473162 -0.41902919877483696 0.1763025255987831 -0.32405715581087047 0.2007800755231964 0.2950935633564811 0.5223339792637083
-0.3651556417503141 -0.6080129235722752 0.3723702604538037 -0.11026799969301938 0.21317454062668667 0.5007027915038422 -0.12470037228298499 -0.022215971692396242
-0.3862637320493335 0.07783480417438915 0.2996504719429452 -0.17062692644025496 0.4123138620420606 -0.2986498659113423 0.13640238597310975 0.3014755412156698
0.29968230823971975 -0.06681326119364724 0.2617132680564219 0.4925990815372978 -0.08777381704967319 0.33377556089446747 -0.016056868880500844 0.08101085940239189
-0.24010957650970072 -0.4937857999209971 -0.08621713075729201 0.32253859287084313 -0.021033830180257698 0.3495918513281624 0.009437565732807835 -0.42834258189088914

dec.net.0.bias f8 [32]
00000000: 14a9 7b46 b86e d03f 53c8 fd9f 6dfe cb3f
00000010: 62c8 d18b 0a6b 97bf 6cc4 a14e 99e5 c53f
00000020: 998d d45c 9b60 c63f 088a 11c2 fd84 70bf
00000030: 1de4 48c8 4e90 cfbf d24d da64 7b58 c2bf
00000040: 79d8 824b 0d49 c4bf 8fb7 7346 e810 d2bf
00000050: 1b57 f6c8 6bf9 c2bf 1f46 427e 7cf5 cd3f
00000060: a972 1f7a b894 c6bf b4ab 788a 0d56 d3bf
00000070: ab7f 2901 3c52 c9bf 8468 0397 205a c4bf
00000080: 2efe 8d94 8df0 b03f c629 e9c1 321c b63f
00000090: 9346 d1c6 0793 abbf 61bb 09a0 c5ed cd3f
000000a0: 5af1 a8e0 5a80 cbbf 4c47 dc21 5fc8 c4bf
000000b0: 3f8b 220a 5848 5abf f8f9 49c8 bdc8 c93f
000000c0: 6915 df7f 9646 c33f e195 fcac 772e 923f
000000d0: f62f f406 4d7b c63f 50ce e471 db19 d5bf
000000e0: 963d 4075 afd2 b53f 779a 77b8 5991 b2bf
000000f0: c039 9b77 65b4 c0bf 13ca 0fe5 eb7d c1bf
0.25675780184850905 0.21870203315808343 -0.022869267257597754 0.17106930102775963 0.17482320816735067 -0.004033080332279677 -0.2465914228394305 -0.1433252565808361
-0.15847936808649246 -0.2822819412239079 -0.1482367259274547 0.23405414738640304 -0.17641359293965778 -0.3021272518405411 -0.19782209450477004 -0.1590004670495696
0.06617054821799037 0.08636777147436367 -0.05385612775775175 0.23381872476917478 -0.21485458345149305 -0.16236485627501407 -0.0016041621934525655 0.20143863944754492
0.15059167140695287 0.01775538438154978 0.17563784446281233 -0.3297031986469152 0.08524605381557246 -0.07253037217706458 -0.13050525989679151 -0.1366553181138249

dec.net.2.weight f8 [32, 32]
00000000: cfa3 6ad8 27fe 913f 1d18 b32c e00c b63f
00000010: e786 ca44 51dd b63f 868c 2c1a 018d b13f
00000020: 09e7 5ddd 1890 c53f 077d afb2 3843 d73f
00000030: aeea 1782 731a 71bf 8d12 b953 6528 a7bf
00000040: ca47 e5dc 70c8 d03f 796a 62e6 bfcc c2bf
00000050: dd9c ca65 f385 d2bf d316 3742 0c0b d4bf
00000060: 3124 2f5e 2147 b0bf 8dd1 4f9f 6ae8 ce3f
00000070: afea 139d 22d5 cc3f 87ec 04d7 47af a33f
00000080: 1073 2df6 3e0b d3bf 2a32 1b2f d2ec cebf
00000090: d81d cefa 9b61 d13f 2733 3fa8 ef25 c53f
000000a0: f12f 5b93 4821 ab3f 0a71 d07c 1bfc c1bf
000000b0: 9ecc 8f06 4285 d5bf 5688 cb1c 7663 d43f
000000c0: fccc 0cf3 7c8a b8bf 8955 8c00 f56b c83f
000000d0: 1282 6d0d 05ef cc3f a3b4 f49e fa15 933f
000000e0: ce49 ced3 ce93 d2bf 1d14 61aa 57d6 c83f
000000f0: ceac be19 8f9c b13f 98a3 8875 1b6a d4bf
00000100: 667e 99a5 1166 b1bf 5211 99b6 a515 9f3f
00000110: 2830 e972 3197 b4bf 532e 2733 dfb8 cfbf
00000120: 1233 4ee5 34cd c23f 8296 0d7d 622e b83f
00000130: cc66 0195 e9d3 d23f dbd1 c3b5 97d6 c9bf
00000140: 9f48 cb30 5d46 a4bf 8a56 668c eb1a d53f
00000150: c8d5 1b40 53bb c53f c15b 114f 4b4e c1bf
00000160: 493b 92d8 a1b1 c43f c0d6 d4a8 6cd2 bc3f
00000170: d18b b998 4e2d cf3f 01f1 fb3e 7764 88bf
00000180: ee05 95e3 6de1 c33f 5f10 9ce5 4301 a9bf
00000190: 2e05 a2ec ce64 b4bf f28d 6d11 3f10 b13f
000001a0: 08b9 8459 7376 d03f 58b7 5ecd 0673 bfbf
000001b0: d90b 8adf e8eb b1bf 341f c635 342b a3bf
000001c0: 1836 556e f45e c1bf 7191 4c9b 22c9 b4bf
000001d0: 5b7c c77c 7dba 7c3f 3508 8ab8 beda c73f
000001e0: 8702 f7c6 d458 b73f 4d77 5199 0d4a da3f
000001f0: c309 c4e3 1ca4 c13f 614f a55a 4e37 b9bf
00000200: 04a6 00be 6dcd c3bf 3ee0 aac7 8118 adbf
00000210: 7b7e 835a c207 c0bf 90a9 dbc5 d919 bcbf
00000220: 4568 8a8f a484 d0bf 574c 3f80 ad1f bbbf
00000230: b251 d04a f440 c93f 0bb1 7b2d e967 c83f
00000240: cce4 f3ac 6713 c83f 60ee 35e1 9121 d13f
00000250: a093 eb25 0b22 d03f cd2e 8f0a f9c8 c3bf
00000260: 9375 e5e3 59bb c63f 1437 bb15 ad5e ba3f
00000270: ac25 8968 921b c03f 5009 b9d8 3dfc cf3f
00000280: a856 a1d8 88a0 cbbf 4ccf 8799 1939 b43f
00000290: 5769 c2ef 985f b63f 75dd a7be bf13 d0bf
000002a0: 3970 4777 9d7c c53f cdaa 6600 992c cb3f
000002b0: 3b66 2ea1 b488 b13f b0a7 20c1 516e cabf
000002c0: 0c0a d0c6 20f8 d0bf 590a d2b2 d883 cf3f
000002d0: cad6 c32d dce2 d0bf e63f dea7 4d22 c13f
000002e0: a9a2 9de3 60da c8bf 4689 fd2f ee85 bd3f
000002f0: aae1 2e6b 270f c63f 39a0 f6ad 0264 c23f
00000300: 7529 a1e5 5f97 b13f a9e6 4bd1 830f d03f
00000310: c02c eb16 8a03 b33f 7ee1 bed9 7280 ba3f
00000320: 0d8c 26e8 a861 cd3f 9be1 f680 b95c c93f
00000330: c5eb d730 8cdc af3f c383 b62e 950b aebf
00000340: 3ff0 3416 99fe c53f 8af6 49bf 459a 9b3f
00000350: dff9 d6fb f839 d5bf 88cd 4c94 b01e c0bf
00000360: 0cb6 2c6e eea5 b6bf 60c2 8a46 0bfd b9bf
00000370: dbbc abed 30fb c0bf 1b05 2c41 0459 95bf
00000380: 2426 e0fc ad6f b63f 691d 695e 4197 c53f
00000390: 9ae6 d70b 96ec 823f 13e8 1f46 3ce2 ae3f
000003a0: 73ea b96d 3b47 bbbf a8ff bf61 4b9b d8bf
000003b0: 946b eff5 b3a5 d6bf eb60 e48c b558 c63f
000003c0: 58c6 9ee4 99d4 aabf 8fd2 3b43 a93b c63f
000003d0: 5e41 10ec 9e30 d53f d396 f40d f68a b5bf
000003e0: c91e 41d8 64f7 b0bf 7b45 9b3b 8fe8 b63f
000003f0: 324b a7ed 84af ab3f 47e8 668a 7b3d c6bf
00000400: 0f01 8fef 7cb2 d2bf f4c3 30be 3c1c a23f
00000410: 679a 71a3 d957 c63f cd7c 82fb c02c afbf
00000420: 18e8 aeea d3b1 c13f e22a 0d3a fd52 d33f
00000430: 1faa 3002 f636 d43f a31c 42b6 6ed4 c93f
00000440: ed11 0fdb ec52 d43f a86f b6d2 c3e2 d93f
00000450: 3748 0967 5274 c8bf 5634 81b6 378b dcbf
00000460: 8684 b189 5ddd 9d3f f862 715f 6a39 a93f
00000470: 9b19 84c5 b06b da3f 1473 f3d9 f4a7 d43f
00000480: ab2d 63b6 ffa2 d3bf 4e21 cc9c 9f24 ad3f
00000490: b1aa b979 18d9 db3f 4c85 19dc eecd d2bf
000004a0: aae2 7178 3d63 d03f 4a68 92ae dfe0 b93f
000004b0: e4ac ae87 d282 babf a3b2 cec5 6926 b1bf
000004c0: 4ce4 5a80 f167 babf b874 895a 512f d83f
000004d0: b08a 9f29 cb7f 89bf bfc6 f4b6 7006 ce3f
000004e0: fca5 22f8 8abc d8bf 1276 1f72 ae08 973f
000004f0: 5f02 0d32 c8ee bd3f ca9b c4f7 3a1a bcbf
00000500: 5371 64f8 64c1 c9bf 6b41 f710 ea51 cabf
00000510: cee6 b555 d58e a7bf 02d8 ab60 ec37 ca3f
00000520: fa65 4b25 c157 d43f 9fe6 1597 8740 883f
00000530: 7c44 5c9d 0864 c4bf ad23 5a40 14c1 c43f
00000540: 186f 771b 0d19 e23f bb2f 9074 45f9 b43f
00000550: 8239 af9e c1d8 c8bf 7ac9 f5de 44c0 d63f
00000560: b7ce d1ff a6bb bebf 859d 42d8 284a 6bbf
00000570: 8ff1 17ad a72c d3bf e1ed cd8c d3d3 d43f
00000580: e9c9 60ad b919 d1bf 8629 2cc2 7c0c cb3f
00000590: 86ab cb3f 86e1 d93f b5da 7750 2f7c cabf
000005a0: 438b 9573 705b cdbf 8a0a c69c 71a2 cc3f
000005b0: b77a 9a74 3b56 c53f 4bf9 1f4c 4756 d03f
000005c0: 85b6 eff0 1c99 ce3f c323 7a86 3706 cd3f
000005d0: 4bd5 b36e 3405 c03f 6e31 385f 2144 c53f
000005e0: b472 fec4 2af2 dcbf b1cf ee34 9190 c23f
000005f0: 6139 152c 2db8 ba3f 20d6 e1a6 5457 bbbf
00000600: f585 8c5f 0fba b6bf c3c5 a801 3147 c33f
00000610: 44e0 ad58 dbaa c4bf b0af 0b0c 5599 9d3f
00000620: de1e 064f 72b7 a33f 5a1e 3f2a b48a cbbf
00000630: 01c3 45e9 b3e5 c63f 51c3 5b18 d38d cabf
00000640: 2ab7 87b6 7076 98bf 9192 e62e 6e95 be3f
00000650: 0efd ee12 e6f5 963f 4f37 4b27 3619 c7bf
00000660: 5d76 3fec 2b88 c1bf db04 57f1 5d75 b2bf
00000670: 10d6 9d44 9148 bfbf 6336 ce06 41c2 b33f
00000680: e458 85f7 9bff 813f 907b 3003 64ff d5bf
00000690: a16e d8bc 5770 a7bf ce63 2763 b6c0 a43f
000006a0: c5fd aa50 2b70 973f 662d e08f a868 d5bf
000006b0: e19c 3502 8f4b a0bf 399e d3cb b120 95bf
000006c0: e206 c1e9 b7aa 9bbf 14a7 ab68 f64d c0bf
000006d0: 24db 9d6b 3d78 c7bf ed44 bf8b bc86 72bf
000006e0: b9d7 57f9 f925 be3f cf98 febc 6b81 b7bf
000006f0: a094 e7d8 62bb c1bf 2748 49e4 8eae cf3f
00000700: 9e47 347b c082 d43f ea8b 3745 245a d03f
00000710: f43a 983a 729f cc3f 630f 53e7 d72c d83f
00000720: 39ea 6a44 c7cf d73f 0beb 277b c463 d33f
00000730: 9edd 6942 e4e0 debf 85bb 9b19 9a22 aa3f
00000740: 24dc 9393 5d4c 933f f9ec 3d04 eab0 e0bf
00000750: 6cef 6dc9 0e8f d4bf 79ce e6a8 b978 d13f
00000760: 5b65 6536 a42a cebf e0c2 8b45 34ae d2bf
00000770: 6692 7018 ad1a cfbf 1619 5cda 8e05 d33f
00000780: 1044 8122 167a d0bf 5552 17c8 b441 c23f
00000790: 39e1 d5b5 93a9 d73f 73af af58 0669 c93f
000007a0: 4e4c 9a8d c187 dabf 9a44 b553 af84 ba3f
000007b0: 5ac1 e1c0 1690 c6bf 3db4 9aa2 dc7a d03f
000007c0: f6ad 9bc7 038e b33f 9923 2daa 1a7f dc3f
000007d0: ec8b 217b 725c d23f c2d9 2dee 2ae8 d2bf
000007e0: 9cf8 fc65 51d6 d0bf 00a0 98a3 a5d0 c23f
000007f0: 1a18 b4aa a94e 973f 5193 49c0 3a70 d2bf
0.017571089347857168 0.08613396731661323 0.08931453637572027 0.06855780495657102 0.16845999535490133 0.363477873323021 -0.004175616458719373 -0.04523007056244408
0.2622339398559431 -0.14687346219291778 -0.2894257062966526 -0.31317430940940233 -0.06358536290567042 0.24146778849502618 0.22525437040152016 0.038446660039391616
-0.29756139794135184 -0.24160220432385532 0.27158259861650214 0.1652202197568837 0.05298830794126264 -0.14050620645947048 -0.3362584175185449 0.3185706406785632
-0.09586316045606574 0.19079458739058122 0.22604430347111354 0.018638530685326626 -0.2902714794555806 0.19404121226594465 0.06879515055213689 -0.3189762733259669
-0.06796369831999413 0.030356015462772952 -0.08043202453080822 -0.24782934186656522 0.14688740917736048 0.09445777466825159 0.2941841082698431 -0.20186134696235922
-0.03959933491354772 0.32976807318605295 0.16977921133336182 -0.13520184860928278 0.16167090487257443 0.1125858223138847 0.24357016045823213 -0.011910373315452196
0.1553170548668698 -0.04883777788020959 -0.07966321255846218 0.066654149775381 0.2572296499446485 -0.12284891618648197 -0.07000594575406129 -0.03743899494571537
-0.13571029078814045 -0.08119407931787294 0.007013788399915811 0.18636306772902037 0.091199205947314 0.4107698437927539 0.13782082673431093 -0.09850015366583655
-0.15470668580501024 -0.05682759821269244 -0.12523679179775002 -0.1097694500018973 -0.25809587495462366 -0.10595211392437541 0.19729474690451593 0.19067110749109192
0.18809219307858027 0.2676739405939994 0.2520778532328283 -0.15457070365515904 0.17759250285864123 0.10300714283513585 0.12584142784389252 0.24988530237357987
-0.21583662583969 0.07899627683928861 0.08739620069028341 -0.25120538347933713 0.1678654510895983 0.2122985126455518 0.06849221167649315 -0.20649167947823122
-0.2651445333032434 0.2462111352106884 -0.2638464400218764 0.13385935494125006 -0.1941643821148962 0.11532486602439915 0.17233746274520217 0.14367707723909165
0.06871604305448449 0.2509469551001567 0.0742727571443309 0.10352247062735917 0.2295428403423049 0.1981422309597861 0.062229519808134216 -0.058682119323982394
0.1718322142058941 0.02695569019350911 -0.33166336625791176 -0.12593657723628504 -0.08846941175280437 -0.10151739570825091 -0.13266574482938762 -0.020847383954792336
0.08764159606666816 0.16867844686405967 0.009240314709120501 0.060319789466987704 -0.10655566624510886 -0.3844784216489594 -0.3538637067519457 0.17458218936440714
-0.052403268010846105 0.17369571478743182 0.33109257748676224 -0.08415162888249066 -0.0662749317135606 0.08948607640492938 0.05407348061603158 -0.17375129945668474
-0.29214404482264994 0.035371683327305364 0.17455597382214025 -0.06088831968485806 0.13823937377111473 0.30194025677762515 0.3158545514476447 0.20179542445496165
0.31756135361163623 0.40446563317686435 -0.19104986220423978 -0.44599716971135217 0.029164754418506543 0.049266170645472174 0.41282290733979615 0.3227512482097137
-0.30682366191168836 0.05692004002600247 0.4351254643176317 -0.2938191556368863 0.25605713617509684 0.10108755123147364 -0.10355869114453103 -0.06699238852770377
-0.10314854987781635 0.3778880485677507 -0.012450778205623209 0.23457154210477957 -0.3865077422329646 0.022494054522999525 0.11692477437919412 -0.10977524327300539
-0.2012144291737835 -0.20562482670221569 -0.046011606896127696 0.20483164520527458 0.31785610811274945 0.011841830538048824 -0.15930278476347215 0.16214230673020094
0.5655580078559721 0.08192857833654348 -0.19411487816109846 0.35548517011115843 -0.12005084748835314 -0.003331260466513166 -0.29960052398362164 0.325428855423267
-0.2671951478143045 0.2113185833080246 0.404389917660119 -0.20691481999502562 -0.22935300487287166 0.22370739130936484 0.16669409936453913 0.2552660220534519
0.23904763950797672 0.2267522246004586 0.12515883832353789 0.1661416735590921 -0.45228070485772354 0.14503684124576702 0.10437280966036645 -0.10680131029388251
-0.08877655108201295 0.15061009007471968 -0.16146413641013357 0.028905228481491185 0.03850896086356469 -0.2151704031259552 0.1788849724794304 -0.20745314301850695
-0.023889313832049876 0.11946762700115189 0.0224224041992303 -0.18045689505236814 -0.13696812663595184 -0.07210337774360502 -0.12220104146202737 0.07718283096456839
0.008788317195165658 -0.3437128096720068 -0.04577898197405018 0.04053277931570386 0.022888829039173126 -0.33451284456596964 -0.03182646657915612 -0.020632532182302852
-0.02701842655392895 -0.12737922774186272 -0.18335693125455876 -0.004523025996563163 0.11776697480658428 -0.09181855548976901 -0.13853107062383163 0.24751459261693862
0.3204804614225568 0.25550181159468244 0.22361591206614373 0.37773702230719247 0.37205678635988054 0.3029643252081519 -0.4824762962884622 0.05104524195291219
0.018845998890324137 -0.5215959627961687 -0.321231552799637 0.2729934834889956 -0.23567631393488395 -0.2918825797233193 -0.24300159161898022 0.29721423458285423
-0.25745156640647426 0.14263019342492336 0.369725158284854 0.19851760225662538 -0.4145358927573327 0.10358711045889138 -0.17627224367198374 0.2574988925869695
0.07638572333569713 0.44525782221585924 0.28689252876773597 -0.2954203916518986 -0.2630809303262909 0.14699240196318897 0.022761012119211534 -0.28809994485918816

dec.net.2.bias f8 [32]
00000000: f3ff fb33 34d4 c53f ad86 76d8 52bc c2bf
00000010: 72f5 e9b3 72c5 c5bf 0d5e c786 9b8f c33f
00000020: 4ed8 4845 fa47 cbbf a188 fe02 1f75 d0bf
00000030: c071 338d 9196 a8bf 231c e6a0 e90e d23f
00000040: 5b5b 52b9 1ead c5bf 1e57 9a5c 3181 c63f
00000050: 7b01 e708 e502 b43f cb8b 801e 9d3b b9bf
00000060: 21ae 89bf 7e09 cbbf dbbf 0f66 f3de bebf
00000070: 45fe 4f51 2be8 c83f 844b 1758 8e12 c2bf
00000080: a260 71c2 161f babf 4b62 afd2 80d8 703f
00000090: 6a3e 3994 cbf4 c73f db19 c203 67b7 c1bf
000000a0: cf04 db7b 6dc0 bd3f dca4 4121 8a91 c53f
000000b0: 8b76 abe8 4adb b2bf db82 a498 caab d33f
000000c0: 156e 61c5 6309 c43f b858 dd1b e7f3 bf3f
000000d0: 40e0 d5a9 2d6d cf3f b619 50fc 551c cabf
000000e0: 5dd9 1bed 01f0 cb3f 679c 6705 3e1b d2bf
000000f0: 6fbe 14e5 7634 9ebf a21e 66d2 9fd2 cf3f
0.17053844965266726 -0.1463721806476789 -0.17008813652857274 0.15282005387301503 -0.2131340826323957 -0.25714850704583553 -0.04802374695438827 0.2821601935651776
-0.16934570359145593 0.1758176519548948 0.07816916911452225 -0.09856588358574851 -0.21122726776535308 -0.1205894588636051 0.1945852419885218 -0.14119128514593282
-0.10203687903538364 0.004112723555373575 0.1871580575702752 -0.13840949710375025 0.11621746324364611 0.1685040151963112 -0.07365863972105495 0.30736031443124795
0.15653655183528828 0.12481541090287152 0.24551935951945048 -0.20398974246945806 0.21826194837167182 -0.2829127362042016 -0.029497010929104336 0.2486152436579135
