main_mitotic/data/model_mitotic_equant.pkl (torch, 96322 bytes, 181 tensors)

w f8 [1]
00000000: d105 1abf 0889 c6bf
-0.17605695086608233

enc.net.0.weight f8 [32, 3]
00000000: 3c8c 1f19 00d7 d7bf ca0b eeb9 f4ca b23f
00000010: 381b d0e6 d66d a93f b48e 3020 2bb5 b93f
00000020: b25c 218f 888f c33f fe96 350d 6da5 b2bf
00000030: 3f38 d437 7c4f a23f f2de a057 e86d c1bf
00000040: dd80 4959 1498 9abf 4e34 0782 f1b3 543f
00000050: dc20 aaf4 8814 c2bf b366 a85b 53e7 c23f
00000060: 38d5 72aa e5d9 89bf 9f8d 9434 2d33 c1bf
00000070: b543 d78f f36a b43f 59fd cd3b 4b90 96bf
00000080: 7189 6cef d0ed b23f 35d7 6a70 7180 bd3f
00000090: 002d 6966 e924 b13f 034c ce7b 0d45 a53f
000000a0: d837 727a 2727 a0bf 313c c7c1 3750 a23f
000000b0: 26f8 1985 b627 9f3f dc5e 92ff e7a6 7ebf
000000c0: d60e a4a2 2576 a2bf 56c9 598d 0925 c13f
000000d0: be7d aad8 2ae7 c0bf bc4d 2511 c467 a53f
000000e0: c225 8470 8605 9f3f ea14 d6fc 658f ae3f
000000f0: 0d9a 17e6 63e0 723f f7e6 7cf0 ed5b b63f
00000100: 7ef6 1b08 3145 cfbf 4132 44d7 e0c6 b6bf
00000110: f81f 671c 3e72 a0bf 90fb fd3c 3f08 b63f
00000120: 7b00 4511 576f a1bf 13cd c697 404c b1bf
00000130: ca2d f7b6 8b4d 89bf 4a47 588c 32d1 d93f
00000140: 3293 5bfb ccd9 93bf 861a 0938 dbf8 b7bf
00000150: bbf9 0171 3a70 b63f 907e 617e e122 b13f
00000160: f399 9c17 7cea bfbf d4bf 5564 551f c4bf
00000170: bd44 20c5 69b6 923f 0f0c 5dfc c056 c6bf
00000180: 5b7d 4cbc 7583 b33f ea20 db36 5b3e 873f
00000190: 0fd3 a7ef bbea b63f 2fb5 7725 0be4 bebf
000001a0: 8d6f 2766 1ee6 a63f c177 488c fa71 aa3f
000001b0: 8120 50bb 7ea2 b4bf 1bc2 04bc 32f9 acbf
000001c0: 49fc af5f 9ab2 c03f 7f67 4990 44b9 c3bf
000001d0: 2cf8 1d00 11f4 a23f d895 d19e 7e75 b23f
000001e0: 4c0f 41e5 ec1e c1bf 0c6e 0d73 2ab2 98bf
000001f0: 3457 57bf 861b b23f 32d3 ad8c 605d c2bf
00000200: 07e7 7a45 78d2 b0bf d87c 180d e354 c03f
00000210: 723a c335 5e9c a9bf ce8d db89 2316 a13f
00000220: 0fa2 8759 1aa1 b1bf 4019 dd4b 4fb7 a3bf
00000230: 5e58 78fa d9bb 99bf 58b5 6a96 6b28 bc3f
00000240: 48f3 08df 6f5f c83f cc74 6fbd b2e8 be3f
00000250: 75a1 ee78 da7c a03f ef5f b472 800c a13f
00000260: e4fb bc09 a47c d0bf 94ec 23ea dc5b 6dbf
00000270: e8da 0f64 766b a23f 8503 981d 75c2 9bbf
00000280: f515 c27f f37c 8bbf cafa 027b 41f2 9b3f
00000290: 1faf b745 8644 bbbf 3f68 b209 a78a 9dbf
000002a0: b71e e67d 8bd3 c0bf 9d4c c807 698f 79bf
000002b0: 2752 1498 20c1 8fbf 2716 f18a 28a4 bd3f
000002c0: ed08 1ad6 0fe5 b4bf 3567 b93d 15a6 b8bf
000002d0: 0c40 593d 0fb3 93bf 8c4b 3ad7 3db9 c13f
000002e0: 0feb db90 b38a b0bf 2912 9d4b 9b63 993f
000002f0: 2e3c 7f15 1978 c4bf 138a d95e 99b2 e5bf
-0.37249758199158456 0.0734093622141209 0.049666133571057036 0.10042066131478117 0.15281779278550328 -0.07283670017713104 0.035762674155293876 -0.1361666133759552
-0.02597076220479343 0.0012636049724392864 -0.1412516779566947 0.1476844975994048 -0.012622637046983173 -0.13437428538700844 0.07975694905986937 -0.022034812474428154
0.07394128651916333 0.11524113649906272 0.06696947813286513 0.04154245506574485 -0.03154872293190153 0.03576826324899008 0.0304249304522203 -0.007483392947640968
-0.0360576401745029 0.1339427890957931 -0.13205466822999584 0.041807295887930945 0.030294514291232984 0.05968779288654409 0.004608526448896655 0.08734023209845164
-0.24429905792196743 -0.08897214179541725 -0.03212160202707531 0.08606333960595536 -0.03405258260545537 -0.06756976800425134 -0.012354938050427661 0.40339339929152074
-0.0193855312744688 -0.09364099615150154 0.08764996775605642 0.06693848929853119 -0.12467170311411006 -0.15720622443359267 0.018273975998515313 -0.17452251741823985
0.07622466895235418 0.011349403964587574 0.08951925850835728 -0.12066716828094991 0.04472441670415526 0.051650838493727765 -0.08060447762557212 -0.05658873124264493
0.13045053169477885 -0.15409142537356144 0.037018328918734106 0.07210532548341264 -0.13375626749086178 -0.024117148658985996 0.07073251887717619 -0.1434746443661879
-0.06571151443759159 0.12759054316936758 -0.05002111822397105 0.033372030809711725 -0.06886448560511148 -0.03850791741438053 -0.025130659019929495 0.10999176428113822
0.19041250601176274 0.12073819279563053 0.03220255590651081 0.03329850578501225 -0.2576074690913954 -0.003583842729424422 0.03597612353762775 -0.02710898392797702
-0.013421919189805268 0.027291319973978635 -0.106514350911024 -0.028849229781009674 -0.13145583770186928 -0.006240282320976534 -0.015505079880804363 0.11578610794193676
-0.08162020661442045 -0.09628422505320773 -0.01923774539892524 0.13846562394300255 -0.06461641584966692 0.024794031610570286 -0.15991509961756506 -0.6780516483816562

enc.net.0.bias f8 [32]
00000000: 5ff5 c247 5e68 a63f 7822 1cdb e7a6 97bf
00000010: a3df dafe c503 a33f 09ac b08f 0ebb 91bf
00000020: 2581 7a47 6d9f 94bf 8956 6357 997e a03f
00000030: 1afb 56e0 6086 843f 0cd1 e6df 31cf b2bf
00000040: 56d8 336f 8ac8 933f b26f 2f78 bf2d ac3f
00000050: eb6b 0aa9 03ae b5bf b98c aafc 9cf5 a33f
00000060: 759b 13e6 acd3 a2bf 4070 5583 14c5 a6bf
00000070: 42c7 9002 b45a 8f3f bc1c 9883 11a3 913f
00000080: d9c9 8eb5 ea92 a0bf 7128 f8c5 25a5 84bf
00000090: 0d53 5a76 5e4a be3f 4b78 471a e522 67bf
000000a0: df93 fb2d 3e78 d03f 5321 7127 2089 7bbf
000000b0: acf0 0027 3afb c0bf 83b0 f5cd c213 883f
000000c0: 64b0 d1f2 1c8c aabf 1a9a 482a 9cfc 9abf
000000d0: 2466 033d 7421 a4bf 3dd1 ca01 02e3 9fbf
000000e0: d9cf 30ed 0ed2 b23f 9164 cdbc 1f0d 8e3f
000000f0: 7ba6 155f df5e 8e3f d0c1 b36b 755b b7bf
0.043765016803699146 -0.023097632168204346 0.03713816391012805 -0.017315127868794664 -0.02013941525240272 0.03221587363956952 0.010021931501680782 -0.0734740420946915
0.019319689786208315 0.055036528988892455 -0.08468649746866645 0.038983255236666854 -0.0367712050299848 -0.044472352058364084 0.015309721306127625 0.01722361913382707
-0.03237088648110715 -0.010080618957563044 0.11832228078339942 -0.0028242563878242747 0.2573390435266542 -0.006722570039592607 -0.13266684441066923 0.011756441030876147
-0.05185022796726527 -0.026354255753313273 -0.039317734191808534 -0.031139403685942247 0.07351773539340857 0.014673469495095655 0.014829392518282738 -0.0912392986244932

enc.net.2.weight f8 [32, 32]
00000000: 8fad 7863 ffda 82bf 951d f2ff 0270 bcbf
00000010: 929d 8e21 6dde afbf 273e 1daf f648 a7bf
00000020: 17a7 76e2 fbd4 b3bf 34f1 1806 71e3 b0bf
00000030: ef48 6d20 87de c23f 1ce6 1f61 6836 c53f
00000040: 57f2 db62 85f5 a73f 671d 91f1 2af0 b53f
00000050: f5e7 e0b0 9be3 b4bf 80cd 1cf4 1d01 5abf
00000060: 9286 8702 8ff8 a53f 259e f096 2ae0 c63f
00000070: bae8 a204 36f3 953f 514e 67b2 628f c4bf
00000080: fa4f 10c7 37f2 d53f 3d8d 1875 ceae b9bf
00000090: 8f4f 9859 aaa2 bdbf 7657 e7a8 04ab b3bf
000000a0: 9e35 764a 58bb b73f fde0 c0ef 1880 bfbf
000000b0: f761 f9c5 de63 a3bf b71c 01f1 bfe0 b6bf
000000c0: f7d1 f9ca 230b ba3f a321 824a b614 b93f
000000d0: c8d6 8a4d 1f4e b33f 473c 7cfb 2d02 8abf
000000e0: dc45 5f17 f3bb 9ebf c8b6 139e 7742 cc3f
000000f0: cf5c bd37 ea7d 9e3f 4521 4f69 9b88 c03f
00000100: c59f 8739 ba3b a53f 6307 d19e dd56 91bf
00000110: e49d f4d2 56d3 a23f d63c bf8f 6117 91bf
00000120: 7083 4bdf 9be1 a6bf cf64 de8a 6792 abbf
00000130: 013d ea50 0361 863f 7f9a f9d5 2b73 ab3f
00000140: 1808 8618 6e27 b0bf 539f e327 a510 a2bf
00000150: e3ec 2a9d eb0c c83f 79db f7f3 8e4e 8a3f
00000160: 0324 4e8c 01b4 a4bf fbcd ebaa fdeb 93bf
00000170: 16b1 53ce 62e6 b73f c027 9ded a2d6 ca3f
00000180: 73bb 4e81 9b47 c03f fc9f 9c8d f0d6 84bf
00000190: 087b 1926 1740 6ebf e8d7 c75f b0ef cebf
000001a0: 5d57 fce9 6e56 b8bf e39e 0f5c d889 78bf
000001b0: 40c5 5969 3b0c 7abf 40b5 eada 37db 9b3f
000001c0: 61d4 45ea a7a0 a03f b5db 0b7d abd3 a53f
000001d0: e7a4 1eef 4ea2 ce3f 2ce8 cf79 42a1 a13f
000001e0: 2ad4 0eef b964 c6bf b418 d74e db95 6abf
000001f0: 0dd5 f4da 426c 933f 96d0 cda1 6bf4 b3bf
00000200: 2d77 3bfe a349 acbf c15e 8d03 03b5 a63f
00000210: 0305 ece1 b3d5 953f ea80 2880 c630 a73f
00000220: 6864 cd65 5616 bc3f e1b0 37aa 0f97 a7bf
00000230: 24ba 51c5 5fc0 ad3f ea31 2da4 21a6 c13f
00000240: 935a 0ed6 314e c23f 6789 8aca 914a 9c3f
00000250: 9f36 5dde 3624 c23f 45e9 5b83 0d07 babf
00000260: a8f9 4395 d41b ba3f f769 7b9b 4a35 b2bf
00000270: df93 36ed 9853 bf3f 13dc 121c 2d29 b3bf
00000280: f129 b460 53a7 91bf 3c0d a5a1 5b52 993f
00000290: 1fb6 8f1f 771c 9f3f aaff 767b 2c7a c4bf
000002a0: 81fc cc71 2837 b0bf fb47 a951 68e8 b3bf
000002b0: b711 c012 6014 ad3f 16f3 6bec 3602 aa3f
000002c0: e6db 8136 ffa3 adbf 8280 467a c77b b5bf
000002d0: a1aa 8a21 4a1a 733f 7de6 758f d5c4 b03f
000002e0: 1496 cf4b 83c2 a6bf da92 7ee4 42aa afbf
000002f0: 7f0f 95b0 f053 b3bf 370a 3c95 c5cf b63f
00000300: b0a4 e397 f579 a83f f680 e998 9419 cf3f
00000310: 2b40 8432 8853 ba3f 9d61 f07a e5d1 80bf
00000320: b564 be7c bc7a b9bf 8938 baa2 6263 96bf
00000330: 6588 0402 431b c93f afa6 b3d9 3db3 883f
00000340: eca2 b10e d938 953f d468 0878 0a2d b4bf
00000350: 7106 878a 3025 babf 7d6d 298a 5c8c bbbf
00000360: 2769 7682 dd84 aebf 076a 4cdb ca0a 8fbf
00000370: 0afc 185a fa5d aa3f e79a 244d ad41 d03f
00000380: 339a e52e 087e c53f 9bc0 44fe 0e9f 93bf
00000390: b7ec 5f16 4548 c2bf 7f77 cdf1 fc7e ac3f
000003a0: c501 8e24 b0da c3bf cf51 7cf2 a6d5 c2bf
000003b0: fc2f ab0f ab73 b4bf 7c48 aeb3 9e20 85bf
000003c0: 4ff7 f3ad ef5c 93bf 8e27 90d2 0014 523f
000003d0: 1531 a28f ebd7 af3f 652f 57f3 2503 a7bf
000003e0: ff87 96f0 c924 a0bf 426f 6f58 24be b3bf
000003f0: bf9c eef5 120f b83f 7f88 ad21 071f b1bf
00000400: 6926 0173 61a6 bf3f cb05 ab3d c6a6 b03f
00000410: f48d 2607 1869 c63f 5593 4247 a4bb 8bbf
00000420: 299e 39fc 7dcb a9bf 34be a6e4 2511 8c3f
00000430: 900c b2c7 0e18 c03f ae99 91a0 3e7f aebf
00000440: be31 66f4 34ac 793f cf17 e6c5 3549 c3bf
00000450: 6300 986a d55c c53f f3c1 3074 3656 a8bf
00000460: 63a1 d83e 0396 b7bf 0952 607d 94d8 abbf
00000470: 37b1 d911 f8c3 a53f f4dd 9ed3 03a8 9ebf
00000480: dd28 ee86 373b bf3f c6c5 6542 c786 93bf
00000490: 868c 7846 35b6 a03f 7fce 3312 96a6 c53f
000004a0: a08e 08d7 c018 b3bf 65c6 8a2b cb4e 853f
000004b0: 4054 74ee 7276 a53f e275 ab31 d320 bfbf
000004c0: e3e8 cf81 b8a4 b63f cc74 a21f 55e6 96bf
000004d0: 64cf 28b5 a3dc 983f 399f b9d2 3276 903f
000004e0: a2b1 726d 23d9 bdbf ee3c 8dfc 31cf b53f
000004f0: 7084 c7e6 0962 bd3f 2134 431b 7329 c43f
00000500: d14d a336 1acd ccbf 87d6 616a ec7d b23f
00000510: a2ee 1322 18b9 b23f b986 5d13 f361 5d3f
00000520: 5794 9085 a6d2 b83f 04d2 52ee 7e1c af3f
00000530: fbdf bb61 3b80 a4bf 215c 9085 ae6b 853f
00000540: d2b1 f7db e037 9ebf f1ff a40e b6cd 883f
00000550: 068e 0500 6fb3 b3bf 6829 00e9 1dc4 a0bf
00000560: c2f0 3295 8cd5 b63f 8144 a43c 62b3 593f
00000570: fe21 7ece d086 b43f 00d0 a835 618a bc3f
00000580: da99 372c 0b03 c2bf 9bca c44e ccb3 923f
00000590: 1d75 8113 44b3 babf b43b 7885 9954 98bf
000005a0: 69a2 ff6c 4df7 bdbf 2053 d1b7 272c 97bf
000005b0: 6ae5 2ac2 2778 c2bf c2ef cefc b801 9a3f
000005c0: 0743 cbc4 cae1 7ebf 7227 1bc8 d815 ce3f
000005d0: ad60 404f af30 b2bf cb6f ac8d 1066 96bf
000005e0: 1ca4 ca2c 3e95 bf3f 50ea 0ac7 6a4a 95bf
000005f0: d362 6cde ebed 90bf c8f0 ab3f e1ae cb3f
00000600: e1d7 0028 0f27 b33f 4d5d 53ff 8a42 b63f
00000610: 0706 aa34 6f9f c73f 011b 5a66 5ea6 9f3f
00000620: 0467 9d39 1d83 b03f 2287 d674 4ace bebf
00000630: be74 5c88 20be c7bf 5a1a 5309 1644 ab3f
00000640: 8cb0 530f 735e 9a3f f6a3 8720 3ffe b2bf
00000650: f208 d081 9f74 98bf c6a5 8216 8846 b43f
00000660: 8d98 eae5 e8b6 b9bf 6c07 1ef2 e919 bfbf
00000670: 6d05 45ae da8a bebf d5cb fe25 869d a73f
00000680: 6802 fbdc cb96 a5bf 4889 b361 3eef 9b3f
00000690: 73d1 a26f a742 d03f 432e 5bd6 ef1b b03f
000006a0: a9d0 dfbf de5b a5bf 5c38 50a2 a286 96bf
000006b0: 9274 1eac a950 893f 0804 bb66 8de7 ce3f
000006c0: b79e 303e b756 a1bf ea42 3e4d 99ad c8bf
000006d0: bec4 272a 91be bdbf e242 5424 7be8 c5bf
000006e0: 3fde dbef 7eae be3f a7d1 378b 58b3 a8bf
000006f0: 204b d2ab 2b4c 563f a1f0 dbb8 1faf a3bf
00000700: 6ba3 4d1e 9847 a1bf 64e9 a3d3 5fb9 b5bf
00000710: df46 4594 9650 a73f d2a5 dc15 c773 87bf
00000720: ac19 ef2d c41a c93f 9676 1272 1b44 b33f
00000730: a42d e2ca 95aa 9abf 78cf 4369 2414 b8bf
00000740: 255d 9e4b d3d5 b0bf 3f22 8e00 1d7f a63f
00000750: db3a daa8 bcc1 c5bf c07f 02d6 9e8b a1bf
00000760: a06a 014f 7995 c03f 731a 38a5 22d4 ad3f
00000770: b016 f6c4 422e c9bf 65cc 5f79 a562 a2bf
00000780: fdb2 ce97 4c32 aa3f 774f 4bb6 5345 b6bf
00000790: 1c97 49ee 0531 b4bf 0492 3deb 6778 a23f
000007a0: 8f1d 458c 2310 a33f d81c 0569 6f65 b2bf
000007b0: 1741 06dd 58ca bb3f 11fe 0b7f 0181 a7bf
000007c0: bf2f 95c6 fb82 913f 9849 f75a b735 a43f
000007d0: 71d4 c731 d8e9 b13f 1ac6 2fd6 b39a c0bf
000007e0: fa73 3adf 8adc b63f c6a2 0da5 843b 85bf
000007f0: 59da ed77 4116 b83f 616e c57c c910 a3bf
-0.009206767295004052 -0.1110841631763065 -0.062243852945637404 -0.04547854316353677 -0.07746862677472809 -0.06597048186171578 0.14741601069778862 0.16572289221203185
0.046795051877755504 0.08569591901424688 -0.08159802501987186 -0.0015871803775099058 0.04291197687031202 0.17871601457703537 0.021435588868123225 -0.1606257792578725
0.34290880622688713 -0.10032358511721369 -0.11576332747818995 -0.07682828067421874 0.09270240610040623 -0.12304836133342074 -0.03787132422138833 -0.08936690935034873
0.10173248010125478 0.09797229117442056 0.07541080134509592 -0.012699469792577868 -0.030013845731280728 0.22077841967204948 0.02977720227439989 0.1291689171032521
0.041471309206655906 -0.016932928865805674 0.0367686398042755 -0.016690754316923094 -0.04469000912445764 -0.05385135240721583 0.010927225024060851 0.0536130617809265
-0.06310165499419929 -0.035283242339402186 0.18789429830744728 0.012845150776213054 -0.040435837151626706 -0.019454921300122035 0.09335916077879278 0.2096751842712461
0.12718528570027451 -0.010175589868211425 -0.0036926700711740236 -0.24168972660817123 -0.0950688668493433 -0.005990834383716256 -0.006359321666978446 0.027203438507674038
0.03247570738577888 0.04263053800052977 0.239328257329624 0.0344334386536079 -0.17494892285108793 -0.0032452853544980512 0.018967671026264777 -0.07794830990116206
-0.05524933317586398 0.04434976023065707 0.021323023475820168 0.04529400171691285 0.10971584306152382 -0.04607438042498458 0.05810832294161042 0.13788242832596548
0.1430113120265629 0.027628210055476467 0.14173017366049565 -0.10167011696822666 0.10198715824296889 -0.07112566276501996 0.12236934462869396 -0.07484704909698818
-0.017239859368638425 0.024728233090411708 0.030382024098733248 -0.15997844723278593 -0.06334164408052524 -0.07776500695879911 0.05679607609639297 0.05079814563757716
-0.05789182224628302 -0.08391997084845751 0.00466374356680413 0.06550345184759894 -0.04445276546884372 -0.06184586562384249 -0.07549957572069664 0.08910784619733013
0.047805475989500024 0.24296815363323504 0.1028370974856904 -0.008212845625210014 -0.09952905698300436 -0.021863499815076657 0.19614446257134258 0.012060626226645025
0.020724669954151162 -0.07881226950158587 -0.10212996847169521 -0.10761049626437642 -0.059607431579211494 -0.015157303636034859 0.051498244760743786 0.25400860341544135
0.16790869035612985 -0.01916144778186944 -0.14283050148501328 0.055656342045707234 -0.15511132988832635 -0.14714514579885793 -0.07988995678459782 -0.010316123827383665
-0.018909211151359625 0.0011034019501061395 0.06219421509112714 -0.04494589419809251 -0.031530676478055845 -0.07712008627953273 0.09398001198006777 -0.06687969753468968
0.12363251741148819 0.06504477506225396 0.17508221005583346 -0.013541491913494555 -0.05038064674300486 0.013704582252869725 0.12573418379551926 -0.059564549542119635
0.0062677448789937844 -0.15067169344928152 0.1668955584027599 -0.04753275078144616 -0.09213276180583345 -0.05438674955818008 0.04251074998760134 -0.02993780116204721
0.12199732822606131 -0.019068826129517345 0.03264013753166588 0.1691463078383215 -0.07459645509566792 0.010404193178462149 0.04191931877918664 -0.12159461939469154
0.08845093888513449 -0.022363023811170987 0.02427917283257787 0.016075891601217782 -0.11659451887198327 0.08519279876530891 0.11477720150243598 0.15751494246652079
-0.22500922839991103 0.07223394009801086 0.07313681442240719 0.0017933725152591686 0.09696427117212757 0.06076428088400479 -0.040040832214742715 0.010459292841956071
-0.02951003401351377 0.012111112901607131 -0.07695668936280961 -0.03274625272031778 0.08919600145867704 0.0015686473221346033 0.08018212357831797 0.1114865070347264
-0.1407178846267943 0.01826400023237316 -0.10429788089955534 -0.023760222216931928 -0.11705478583429287 -0.022629376024570935 -0.14429184895360986 0.025397196226307768
-0.007539550843561177 0.23504171152881842 -0.07105537114000766 -0.021873720786160605 0.12337101548713786 -0.020791691206549168 -0.016532597971578532 0.21627441033331807
0.07481474615710183 0.08695286496673767 0.1845530516766731 0.030908083912915 0.06450064331638933 -0.120335248494055 -0.18548971803912723 0.053253830564746266
0.025750921068649776 -0.07419199508844074 -0.02388238172353225 0.07920122670716187 -0.10044723141854402 -0.12148916398112214 -0.11930624727849244 0.046123687875841014
-0.042166109776648864 0.02727982970544332 0.25406824018434476 0.06292628272347493 -0.0417165383550196 -0.021997967869588173 0.012360883298067091 0.24144141689433263
-0.03386471399454421 -0.1927978160060982 -0.11618907241042373 -0.17115725778469143 0.11985009532860945 -0.04824330043257712 0.001360933921465253 -0.0384454644353991
-0.03374934549248717 -0.08485983769415878 0.045536714171829244 -0.011451297144577408 0.19612934344168076 0.07525798354114452 -0.026041355617548625 -0.09405734605735272
-0.06576271625668946 0.04393854743745295 -0.1699748825526147 -0.0342683445207963 0.12956158025447895 0.05825908915362712 -0.19672426812410526 -0.03590886217707449
0.05116500237577346 -0.08699534607450042 -0.07887303416790953 0.036074874368555526 0.0372325047233587 -0.0718602782627501 0.1085563220606257 -0.04590611148705304
0.01710122489502885 0.03947232232498549 0.06997443404527971 -0.12972114523249517 0.08930271100912526 -0.010367428099656972 0.09408959558445797 -0.037237450104581134

enc.net.2.bias f8 [32]
00000000: 4746 e1cf af20 483f bd97 de88 093b 923f
00000010: c9ef ca14 c32b 953f db6b 33e4 3013 9b3f
00000020: 2a1d c320 ea8d 9a3f d1d5 daff b53a a13f
00000030: 43fb 853e 46ad 95bf 3801 1657 ac66 99bf
00000040: e189 9674 d449 993f 2b5b bf89 274e 9abf
00000050: be2f a2c5 108e a03f de4d e6af 796c 9abf
00000060: 8f68 2c08 d61a 97bf 69cc 73f3 05e6 993f
00000070: 0a4b 40b4 ec8b 933f a5f2 49c9 abbc 95bf
00000080: 55f0 0f1e 349d 9a3f 2481 c200 7285 99bf
00000090: 4b31 4d4b 236a 953f 4db2 555b e031 a8bf
000000a0: d95a 3077 77b1 95bf ad00 2289 9e7f 9cbf
000000b0: 7cf9 11e6 9436 94bf 77d8 3bce 7450 9a3f
000000c0: 2048 2a70 64ac a9bf 8712 70bf a7e0 8a3f
000000d0: 5bd2 3e33 7bf8 a03f 6853 0cb4 34b4 a1bf
000000e0: 47eb 9564 628c 743f e5d8 4507 2774 953f
000000f0: b85a ffca ce6f 73bf d736 d4a2 dfa6 9c3f
0.0007363184411223821 0.01780333421597623 0.020674751419150348 0.02644039528682272 0.025931986093181404 0.033651053888586475 -0.021168801847575535 -0.024805729689888895
0.0246957012328809 -0.0256887605499642 0.03233387386816798 -0.02580442558389772 -0.02256330895316033 0.025291531547690847 0.01908845758596115 -0.02122753540105528
0.025990309080939095 -0.024923116012929417 0.020912696333924157 -0.04725552668501063 -0.021184794091903967 -0.027830578918383853 -0.01973946241604939 0.02569754132033394
-0.05014337414935732 0.013123808412282457 0.0331457614951531 -0.034577986696752216 0.005016693446459559 0.02095089895143411 -0.0047453000879246685 0.027980322182932973

enc.net.4.weight f8 [2, 32]
00000000: fb38 a1ee 82c2 b33f d652 bb5a 047e 98bf
00000010: fb6d ba21 3882 b93f e4fc b05b b0b4 933f
00000020: 087e 8c6c 4b3e a03f 908e b0a5 720d c0bf
00000030: 206e 6bcf aab8 94bf af05 56be b9bb afbf
00000040: ac9e 2863 0631 a1bf 9880 6326 c33c b4bf
00000050: 1f2e 76c9 55bc 9ebf 78f5 f58a 57cb b5bf
00000060: 3305 1d96 c906 bb3f 8150 1f22 64da b33f
00000070: 2e59 0a5d f0fb c13f 8de7 8e94 9744 b7bf
00000080: 1547 0dcb d246 d13f a8ba 752a cd9f a6bf
00000090: abbf 1718 5bbd c63f 5428 801e d06b c13f
000000a0: bd2c 4c97 aae5 c9bf 7134 ccf5 9265 9cbf
000000b0: a5d4 38da f4f0 b6bf 6423 6322 a905 c33f
000000c0: 3c49 dbb0 3130 c43f 0469 0014 053c c4bf
000000d0: 8f2b f784 9860 b2bf 3f12 759d 145a cb3f
000000e0: 687f 0840 464e b33f 1adc 1086 f22e c03f
000000f0: 4c02 8f44 5b36 ab3f 4429 03b5 36bf c9bf
00000100: 76cf 3013 a93e a13f 62cd 4c82 6232 bb3f
00000110: a969 6f90 b4e6 a73f de2c f641 229d a13f
00000120: cddf fb95 fcba a73f 79ca 530b 9c41 a43f
00000130: df16 7a56 fbdc ccbf 7eed c94f f42b b6bf
00000140: a6ac 644d 33e5 c33f 7d8b 1152 14d5 a1bf
00000150: 20ae df78 646e 7ebf dd31 0d7b 44a9 8abf
00000160: a7cd 0858 3171 c9bf 1b9a 3cdf 4f9f a93f
00000170: cb05 c1c7 28ef bd3f 9aa7 9d66 8d5b cfbf
00000180: fd06 feea e062 b6bf d7c0 1629 ce22 b9bf
00000190: 8e78 99d2 1682 c03f 322d 0649 4f3f 95bf
000001a0: 7726 9efe a326 c1bf 98b3 1196 f2d9 54bf
000001b0: 56a3 900f eb16 bfbf 45cf 15a0 a5e3 7dbf
000001c0: e7ef 7333 94d9 9dbf ded2 bb25 24ad c13f
000001d0: 1c0a ff08 3449 8f3f 0710 c156 38b8 b3bf
000001e0: d925 b3d5 67d6 a23f 40df b327 7f28 bd3f
000001f0: 2ca0 c58f 5349 e43f 8493 47a1 9ffc b4bf
0.07718675924227007 -0.023918216741395458 0.0996432382912004 0.01924396094932214 0.03172527027185984 -0.1254103955299013 -0.020235699567690557 -0.06197910736501499
-0.03357715568955419 -0.07905215918754249 -0.030015316411249878 -0.08513400213811007 0.10557231821896522 0.07755113442482477 0.14050106566419046 -0.09089038254651723
0.26994771794589784 -0.04418793814953875 0.17765368153004366 0.13610269059455737 -0.2023213614232641 -0.027731224300670158 -0.08961420371709268 0.14861025027337427
0.1577207673604536 -0.15808166004791968 -0.07178643461445076 0.21368653953881453 0.07541312278089907 0.12643271967110153 0.053149082297299616 -0.20114787901395392
0.03368118628750853 0.10623756104614793 0.046682016974688274 0.0344019608993109 0.04634847002847629 0.039563061125495964 -0.22549382898812717 -0.08660819004028572
0.1554321411034369 -0.03482879163563888 -0.007429497212779107 -0.013018164639697122 -0.19876686857751943 0.05004357910211273 0.11693053128057966 -0.24498145590342518
-0.08744626748196178 -0.09818733695169911 0.12897000582865242 -0.02074931987003232 -0.1339917176485874 -0.001272665882676471 -0.1214434540749044 -0.007297179197269636
-0.02915031017344907 0.13809635012116578 0.01527634289221163 -0.0770297252466322 0.03679203494682399 0.11389918059637427 0.6339509780928032 -0.08197972953310112

enc.net.4.bias f8 [2]
00000000: 038c 4aa6 f68d 963f 67fe 661c f590 973f
0.02202592267952853 0.023013906343975068

dec.net.0.weight f8 [32, 2]
00000000: 9f5a c45b 52d7 c13f 27da 8521 92ad b3bf
00000010: 1f4a db1a 6c3d b3bf ca1c dee7 4d2b d23f
00000020: 296c 5ab5 7df4 c3bf dde6 7e84 f80a b03f
00000030: d700 f948 f251 d9bf 7bbf 62b0 7e66 b2bf
00000040: 4be3 523d f3b0 8bbf 5501 db81 b27b c7bf
00000050: e127 ec16 8025 d43f 4733 9f57 4fc5 b6bf
00000060: adf1 8635 ea0a bcbf 8340 96e1 e9b0 cbbf
00000070: 66c0 b356 f550 a43f 4740 593a b798 d13f
00000080: 0a81 fdce c1e2 ca3f 2cbc cd1a 6610 c1bf
00000090: 3b9c 06dc b73e c73f e6af a997 8bbb d13f
000000a0: 9c0e dfde 645c c63f e50f f90d 569c 723f
000000b0: bfcd 59fe 07ca c9bf ea53 7480 3dcd d53f
000000c0: a2fd fc5b 6285 c83f 4ab5 3293 a70f d4bf
000000d0: 3c46 80b3 4094 c63f 38ea 71e8 e943 c3bf
000000e0: af38 9c55 1173 c03f 5b8e a6aa e2c7 c93f
000000f0: c70f 70b7 a7bd cd3f 1652 a380 393f cbbf
00000100: 10f2 a6f1 4592 c9bf 3877 6ea2 11ce c23f
00000110: d796 ca2c d594 c73f 1cf4 00f8 0b14 d03f
00000120: 02cb 5522 9366 c7bf 2da4 a7e0 1d9b d1bf
00000130: 7497 c525 b5f6 e13f 23c3 ef1e 9ba5 c03f
00000140: c089 7ccb 4b4f d3bf bced dbab afa2 c53f
00000150: 327f edd2 3d4b ba3f ea8e 80f6 ecd9 d1bf
00000160: c93d 7f12 422a d5bf 4810 cd40 6361 a2bf
00000170: cd35 4a11 6bf1 d7bf bd7c d704 b433 b2bf
00000180: 89cc 97d7 0307 b63f 46cd 276a 2f54 d13f
00000190: bebe 4133 9574 ccbf 239b 8f55 d35e c53f
000001a0: 7f63 a736 8094 c63f 42c9 926a 5ff3 c9bf
000001b0: 0e44 a768 da9b c6bf c941 fe2b 6c41 c73f
000001c0: 2b17 3065 40be d0bf 8ec0 d608 5cd7 ca3f
000001d0: d095 acb6 85d2 a13f 6a62 c45c 547a ce3f
000001e0: bd61 22c0 d2a8 d8bf f60d 40dc 14c7 d03f
000001f0: 8edc b40b 5e98 d2bf 2fe7 2ac3 8311 a13f
0.13938359719096113 -0.07686723059109878 -0.07515597968748765 0.28389308589289597 -0.15589877467286442 0.06266740069159078 -0.3956266129134866 -0.07187644773762074
-0.01352109938521697 -0.18346244183158925 0.31478883970760135 -0.08894821061330759 -0.10954154784025745 -0.21633647456156177 0.03968016322494421 0.27494602869137846
0.21004507643647968 -0.13331295307895752 0.18160150760124502 0.27707185564827197 0.1746946418989993 0.004543625021657481 -0.2014780036875958 0.3406518701970628
0.19157056323636562 -0.31345548033535364 0.17639931454373137 -0.15051006173946901 0.1285115879076719 0.20141251881169606 0.23235031563683448 -0.2128669622531027
-0.19977640437527144 0.14691372328973684 0.1842295139987786 0.2512235567008376 -0.1828178327228543 -0.2750925725836762 0.5613656747561735 0.130053892236469
-0.3017148482487322 0.1690272893100494 0.1027105941734561 -0.27892612526396354 -0.3307042294154284 -0.03589925924328036 -0.3741099995466726 -0.07110142820555417
0.08604454053402057 0.27076325766320897 -0.22230782511495834 0.16695634534627243 0.1764068858017502 -0.20273964599398125 -0.17663126096752574 0.18168403766732258
-0.26161203271509476 0.20969725066743589 0.0348092828265113 0.2381082013096319 -0.3853041530906259 0.2621509695893275 -0.2905497659989543 0.03333675153176185

dec.net.0.bias f8 [32]
00000000: 1f4f 92bb 232e af3f 0577 37ab f26c 82bf
00000010: 2119 2d16 889b d93f 4fdb 519d b9c2 d2bf
00000020: 6e8c fe3d d09d 953f 3ae2 1eca 46c9 bc3f
00000030: 80d9 1654 c16f d1bf 03be 8041 19c9 c6bf
00000040: be29 6acc cf04 c4bf 2a97 1cfc 4f29 d23f
00000050: 4a54 a282 0711 b8bf a437 cd05 e4a3 c7bf
00000060: 0b2c 19d1 db71 cbbf 9979 5f7d df59 bd3f
00000070: 0882 f050 dd28 99bf 1821 1308 982f c7bf
00000080: 4231 9559 7318 c63f d2aa 5110 122a a63f
00000090: 8f9d 0681 6d93 d8bf 8274 6adf cc70 b8bf
000000a0: eeb8 afbe 1d75 c0bf d9db 13c4 ab85 a2bf
000000b0: 1b2e 6307 fcf2 a9bf 3b2d c479 2b0b c9bf
000000c0: 766a b47d 64d6 b43f f58e 222d 7ecd 81bf
000000d0: 5b67 c927 dd54 a23f 8510 89e7 be6c c33f
000000e0: 7ab8 90d6 ccc8 9bbf df70 e3e8 f779 b33f
000000f0: 75e0 aec5 92fc ad3f 80a5 eb5a 06fe a2bf
0.06089889206591991 -0.008996864175908845 0.4001178947986706 -0.29313507426507085 0.0211098230207764 0.11244623598657535 -0.27244599544373926 -0.1780120439375282
-0.1563968418234491 0.2837715112712994 -0.0940098470621972 -0.1846890476539872 -0.21441219053153335 0.11465260325301187 -0.024569948258546886 -0.18113994974397296
0.17262117265853233 0.0432897229118986 -0.3839982757585511 -0.09547119574058807 -0.1285741025053037 -0.03617607849621835 -0.05068194952181334 -0.19565337606068475
0.08139637059177027 -0.008692727806482984 0.035803710085658046 0.15175615601959094 -0.027133179279353638 0.07607984004738765 0.05856760657428676 -0.037094305609410405

dec.net.2.weight f8 [32, 32]
00000000: 632c a7fd df40 a4bf c688 4cd7 8ce7 d0bf
00000010: f64b 586e 7972 b33f d6af b161 63aa c23f
00000020: bb13 6cba 0f4b c23f 8122 cd47 552f c4bf
00000030: 4215 7e42 787b d63f 9845 5e69 bb9b cabf
00000040: 2556 bd6c 75e9 bd3f 0708 0e02 f601 d2bf
00000050: 6e5d 6888 3546 afbf 7ce5 8c4d 9f8f d7bf
00000060: 74ae 974c 3285 bf3f 7f55 4dc5 b612 ba3f
00000070: ce33 e511 a3b7 c1bf 524a 67bf a6ef a93f
00000080: bd85 569f 5f2f af3f 8ac4 51d4 f7a9 d0bf
00000090: d407 674c bae6 cc3f 6893 d326 7f52 d1bf
000000a0: d1e5 bff5 a347 923f 5979 8725 c643 ca3f
000000b0: 0adc 9fa4 b9d1 cf3f 0a42 00cb 1621 d63f
000000c0: af3a dbd6 4d23 d1bf 431a 6ff3 eb47 c3bf
000000d0: bae6 2558 328e cd3f 9367 8128 fdc9 c2bf
000000e0: 9be4 7a0f 3698 a3bf efb0 f229 00b4 d5bf
000000f0: 51c4 cb57 a90d cdbf 3bd0 3811 b74c ce3f
00000100: 055b e56f d6aa a5bf 94ce 8096 6e25 b1bf
00000110: c1a7 a35e 3512 c4bf 6066 7f69 f1a8 c4bf
00000120: 264b 8d59 6806 973f a0f4 c741 e40b d03f
00000130: ba7f 496c 3bd2 b13f 2388 3777 676e b5bf
00000140: 1f31 fb5a 09f7 cd3f 943e 6ff6 baaf c1bf
00000150: 6354 aa8e 7e8b be3f 10d3 e60b 699e b2bf
00000160: 167c 6e5a e7eb d13f e8fa 72d7 716a bc3f
00000170: 748c eaff 6ee3 b0bf 3a24 48a4 828f bb3f
00000180: 393e bb0c 7e80 cdbf 2828 dac1 a1a1 9b3f
00000190: 100e 8d61 944d 80bf dc5b 1686 f82b d43f
000001a0: ab9f fb94 1056 cbbf c237 d83b db2d 9a3f
000001b0: e475 c71b 8302 c9bf 4bee 7223 29fc c5bf
000001c0: 27e9 0f8a 59be c53f e0af c5b0 f66c b6bf
000001d0: e66a d527 14ad b03f 09e1 239c 157f bbbf
000001e0: fe7c c1cf 1a54 ad3f 1c24 23a0 b082 a53f
000001f0: 98dc 9d86 97f2 a6bf 781f d3a0 1303 c0bf
00000200: 2e2e 4ca3 0a56 bb3f c45f 993a a8a5 a8bf
00000210: 486c aefa f5fd bebf 102c 68b7 db78 d3bf
00000220: d80b 6e26 bb17 af3f 1d5b 2aaa f92e ce3f
00000230: 4a9f c612 ab05 bebf deff f604 8383 a93f
00000240: 82c3 dc62 4afb c13f 533a fc7c 1aff e03f
00000250: 139e b70d beac c63f 0752 15fd 7e8e c9bf
00000260: 9ce0 e05d cb4a b83f 0e1e 1db0 62cd cc3f
00000270: 3dcc 9880 9fa6 d03f 9fa5 bd47 2212 d53f
00000280: 4a59 4c92 dc78 c4bf 2801 54e0 42dc ca3f
00000290: a26f 3cfb 875d d4bf c29d d01e c32e d13f
000002a0: 3a74 b331 d325 c5bf 0083 27ff 8fcc b33f
000002b0: 4ce2 d059 413c d0bf fede b3f3 3e67 e1bf
000002c0: feb6 0a26 908a b7bf 5337 906d 738d a33f
000002d0: 5adc c6da be55 c23f 8751 cd02 2115 d2bf
000002e0: 2fe1 619f d5c2 cbbf 9d98 2bb6 a988 b2bf
000002f0: e695 c901 c1b2 d3bf d488 7c7b 4ef2 d2bf
00000300: 3a9a 0b12 20da 92bf 30c0 7c32 8260 a5bf
00000310: b79b e1d3 e0f6 a03f 1d49 0082 4894 ca3f
00000320: cd04 5821 3598 b23f 18ea 34b1 d892 a73f
00000330: cd63 2d54 f358 ad3f 4d4a a6ba 924c c3bf
00000340: 7281 d4ec 2af5 a23f ace7 5b64 0887 a23f
00000350: 0201 24da 682e c0bf d967 fd1d ff9d a5bf
00000360: af14 4673 a794 87bf 38a4 d05f 45f0 c53f
00000370: 7557 23d5 72ab bebf 7350 e391 7150 733f
00000380: 66d1 f57f f971 84bf ee46 26a0 8769 833f
00000390: 80b5 5080 0188 a1bf 39d6 6d06 361e bbbf
000003a0: ff76 5f06 e91e bfbf a523 7c37 5a7f bf3f
000003b0: 4833 8d53 5b62 c43f 4189 cd6c 5102 bf3f
000003c0: 9503 7dff f2bb c8bf e9e5 0db5 8bc9 bbbf
000003d0: 6f4e f100 5304 c13f e326 b583 e2b6 b4bf
000003e0: b5f6 036e 2640 c5bf 1916 d7cf 99fe c3bf
000003f0: 3882 0d93 d6cc 87bf 8fa7 dd91 de28 ca3f
00000400: 003d 301a 0c22 b33f 397c fd11 095c 94bf
00000410: e396 55ab 5f9a 9c3f 9f31 c990 4fd3 b63f
00000420: 50ce 066e fa66 be3f 77d5 adad 70c3 a13f
00000430: 93f7 15c2 b50a c53f 2d03 8c2b 6f2d d6bf
00000440: 16e9 bcb9 bf68 c2bf 9b68 df44 6bb8 d4bf
00000450: c755 94d9 5342 c5bf c34b 674a 0d2c cbbf
00000460: aa4e 466c aec5 9c3f fabd 5636 44a5 7cbf
00000470: c003 3ed3 a5fb b13f b54b 4f86 6c8d c2bf
00000480: e9d7 d57a 34ba a13f f471 e6e5 8571 d3bf
00000490: 264d adb0 18b9 d33f 682e 25b9 2990 d0bf
000004a0: 1f5b ab4f 1f8d a0bf 7955 bdcd 4083 843f
000004b0: 1e94 57b1 fbac c43f a160 101f 8832 ba3f
000004c0: 3daf cf42 da82 cebf eaf1 d33c deb7 a13f
000004d0: 5ad0 272a ddcf 36bf 0939 dd54 77a0 9bbf
000004e0: 4694 0912 5e85 b3bf b31e f288 d548 bdbf
000004f0: baa0 64d1 0f3e a4bf e631 8710 faa0 b7bf
00000500: 0504 a42f 1ef5 b33f 6424 369b d903 d43f
00000510: 22ac 32c3 b43a 68bf 7e75 89ec 4e51 8fbf
00000520: 032f 6b58 c952 afbf a46c 849b fe72 b53f
00000530: 625c 611c 9d76 b0bf a975 a03f 6d76 8c3f
00000540: f6f9 a048 a52b c0bf 97fe 484e 49d7 cc3f
00000550: 6ccc 241a be48 ab3f 0069 ddea 2526 13bf
00000560: d26e a9aa e6a6 c6bf f1ad 71ec a263 87bf
00000570: 711c 9e6b e718 b43f 826c 33e7 f62a c83f
00000580: 6d56 146a 3f11 a53f e744 95b0 5e89 c53f
00000590: b6fd 1329 d203 b53f 8a4b 6175 53e6 b0bf
000005a0: 6869 9b24 3262 b73f 0841 ee49 9f49 babf
000005b0: e894 2a99 fd1a c0bf 49d5 1105 3766 a0bf
000005c0: 2bdf 2538 43e2 b83f e7be e626 ee41 a73f
000005d0: 68bd baa6 2593 b6bf 3f60 a4f7 9340 9abf
000005e0: d251 8e91 b2d6 be3f f27c c88f 770c c83f
000005f0: a1fd a88e 4a4c c93f ee49 c1a3 5dc7 a5bf
00000600: eb4b 9c01 ed59 b8bf 53ed 7c7b 4a8e d23f
00000610: ff38 79fe f644 bf3f c8ac 258b 0b74 d43f
00000620: 8bfb 7564 c183 b2bf 1f79 d4fe 266e d1bf
00000630: ad31 8877 875f a73f fab6 9cee 6074 c13f
00000640: 98a3 0b6e 764f c1bf 35d5 ac5b d0a1 c8bf
00000650: 9ca7 eefd 3960 c4bf 7fba 71e0 77b7 ce3f
00000660: b1d9 fb5e 9091 cebf 82ba 6daf b47c c5bf
00000670: f173 390c a39a c03f 1084 1ffd 570c d6bf
00000680: 279e c178 f7d7 d03f f5e4 5966 4ffa b2bf
00000690: 5002 88ab df42 743f c1ce fef2 2c28 c8bf
000006a0: e357 4543 a406 ca3f 9095 b586 e977 d8bf
000006b0: f14d 00c6 3569 cc3f f309 572b 6ef6 d03f
000006c0: f9f9 ad66 ce3c d33f 6be4 3594 abe1 bd3f
000006d0: eaea 024a 825e d1bf 5940 3f1e 4855 d63f
000006e0: 312b 78b0 4a13 c73f c65c 0847 00a1 bd3f
000006f0: 9b4c c19f d16d da3f 599f 2c0c a41f d53f
00000700: 93e9 dd23 f639 c93f 3579 0420 c3c9 a93f
00000710: 9a2e e23e 89e5 b2bf 11d5 5009 5024 b5bf
00000720: 3667 b02f 5cc7 b4bf 46b9 b9c7 c96e a8bf
00000730: 6abc 7b8b eaa2 593f 717f 32d1 04e9 a4bf
00000740: 95e4 9379 76af 98bf a9ef 9fdb eb45 b53f
00000750: f1bd d5f8 7a41 bd3f f031 708a cff8 c3bf
00000760: fd68 64de 982c 863f e782 abde 4efb 893f
00000770: 15dc 5cd4 ecea bf3f 62d5 5e02 be90 bc3f
00000780: d198 3155 8c15 babf 56c8 bc5e 62f7 d23f
00000790: e831 4c01 0e84 acbf 849f b340 1d88 903f
000007a0: 7afc 4ae6 3c64 c4bf 056d f7a4 2906 c33f
000007b0: ffea e188 c0ad bc3f 87f5 f5bf 19da bdbf
000007c0: 6cc1 fc86 1d02 c4bf ca6d 371f b6d5 c5bf
000007d0: 422c 11ca af6b a6bf 3e81 c4b4 0774 783f
000007e0: 8afb 389e 08ce bebf b650 2377 7c21 a43f
000007f0: 2669 bd77 8ba3 bbbf 913b 9185 9a68 b8bf
-0.03955745669699053 -0.2641327002076078 0.07596548980681903 0.1458248354932709 0.14291569330830875 -0.1576944923965762 0.35128599637421953 -0.20787756581243566
0.11684354691291128 -0.2813696880403999 -0.061082528020217505 -0.3681410081222436 0.12312616701063367 0.10184805218644576 -0.13841665624423033 0.05065651976078257
0.06090830631297759 -0.2603740285331432 0.2257912514742758 -0.27066019813201203 0.017851411699643386 0.20519329864959948 0.2485878042059258 0.34576959442441135
-0.2677797887999231 -0.15063237558770667 0.23090199760536284 -0.1467892120152184 -0.038270654096274025 -0.3391113671921308 -0.22697941576874084 0.23671615925707265
-0.042319012793703016 -0.06697741674798358 -0.15680567856844443 -0.16140573168995598 0.022485380616966165 0.2507258074181866 0.06961413758972315 -0.08371588383263932
0.23410145704691218 -0.1381753638547606 0.1193160150817945 -0.07272964993064712 0.2800234206314952 0.1109992171286468 -0.06597036121324767 0.10765854368959618
-0.23048377629901198 0.026983764130399518 -0.00796047136976255 0.3151837644049331 -0.21356398844295418 0.02556555321466881 -0.19538916450885246 -0.1717578337755746
0.16987151376071916 -0.08760015311935332 0.06514097187520526 -0.10740790426269 0.05728229318696697 0.04201271014023453 -0.044819579298683354 -0.1250938926007128
0.10678163992650333 -0.04813886370965251 -0.12106263513708015 -0.30425160322983036 0.060727928582330726 0.23580857094631194 -0.11727399071116654 0.049831480365810185
0.14048127963317475 0.5311405602568108 0.17714667959010963 -0.1996611343153207 0.09489127199128905 0.2250178680353518 0.2601698642567419 0.32923180585802386
-0.15993840354412675 0.20984683946154203 -0.31820869002126007 0.2684791375090435 -0.16521682669454824 0.07734012584070271 -0.2536776902302662 -0.5438532600228141
-0.09195805481678218 0.03818855965083281 0.14324174578152588 -0.28253960870394973 -0.216883375953111 -0.07239781091229465 -0.3077852742629531 -0.2960392194674004
-0.01841020689144044 -0.04175192705440656 0.03313353144113001 0.2076502451678345 0.07263500274713693 0.0460422245327729 0.057319263482618156 -0.15077432740925403
0.037026730928348864 0.036186468363623575 -0.1264163079395147 -0.042221043024894996 -0.011514003949523703 0.17139498880831794 -0.11980359748426202 0.004715388901065254
-0.009983014314209181 0.00947862584579037 -0.03424076739643578 -0.10592973381957273 -0.12156540303791628 0.12303699354755666 0.15925160960832785 0.12112912088699536
-0.19323575472847368 -0.10854409380217302 0.13294446512246647 -0.08091560092466525 -0.16602020618295446 -0.15620730064817748 -0.011621166575140326 0.20437223551135417
0.0747382701813315 -0.019882337306054352 0.02793263896219046 0.08916184696972217 0.11875882326312959 0.03469421501260233 0.16438934304090633 -0.34652308704976315
-0.14382168359026853 -0.32375604368065475 -0.16608665584560198 -0.21228185780509365 0.028097844465789258 -0.006993547872681466 0.07024609000474324 -0.14494091566174708
0.03462375640349064 -0.3038038964384946 0.30817239049538825 -0.25879901009168416 -0.03232667777563435 0.010015970495866654 0.1615290275505296 0.10233355291745962
-0.23836830389279298 0.034605927396089545 -0.00034808301475597813 -0.026979317240425824 -0.0762537759815852 -0.11439261048701148 -0.03953599387233582 -0.0923000612594432
0.07795895255186742 0.3127349868523821 -0.0029576807515545736 -0.015291802018675634 -0.061178485911652224 0.08378592774208699 -0.06430990164641195 0.013897756103740404
-0.12633195921257795 0.22532001802936882 0.05328935689103606 -7.304769925778679e-05 -0.17696841557596216 -0.011420510140132985 0.0785050046671232 0.18881117142777631
0.04114721460261426 0.16825469610424834 0.08208955290682848 -0.06601449599956602 0.0913421000836131 -0.10268588595340955 -0.1258236883051389 -0.03202983796010501
0.09720249291228515 0.04542488312597275 -0.08818278618376996 -0.025636970510362508 0.12046352437602728 0.1878804637972063 0.19764072385622192 -0.04253666519129583
-0.0951221589023558 0.28993475016951215 0.12214606964809958 0.3195828303202686 -0.07232292845399806 -0.27234816442241255 0.04565070470934827 0.13636409426674573
-0.13523750661195488 -0.1924381682999098 -0.1591866006759205 0.23997400721733084 -0.23881725919609445 -0.16786821904993948 0.12971914383788843 -0.3445034000306473
0.26318156044587443 -0.07413192986304636 0.004946588240728092 -0.18872606148726415 0.20332768711767732 -0.38231886058050524 0.22196075599695989 0.2650409148447174
0.3005863192301202 0.11672470444126908 -0.271393368031268 0.34895518258872965 0.18027623764677395 0.11573793157764375 0.41295281029779013 0.3300562018289291
0.19708134414015585 0.050367448480971445 -0.073814943172858 -0.08258533694682436 -0.08116699375423483 -0.04772024691634384 0.0015647211529843615 -0.04084029248883681
-0.02410683743525917 0.08309816467220678 0.1142804009921219 -0.1560306001632763 0.010827249800560152 0.01268636338267144 0.12467842278134385 0.1115835910594192
-0.10189129905629392 0.2963491368456109 -0.0556949974617032 0.016144234727931486 -0.1593090176083683 0.1486255698681377 0.1120262464700481 -0.11660920082609581
-0.15631455508401915 -0.17058445476764766 -0.04379033414496593 0.005970029928249963 -0.12033132422310025 0.03931797937699015 -0.10796424554192594 -0.09534612427635937

dec.net.2.bias f8 [32]
00000000: ec21 239b 71cb 9ebf 98b9 27fb db28 d7bf
00000010: 5748 a0c0 af1c c1bf 093b 701a 51d7 b6bf
00000020: 2b6e 5132 3545 d6bf eaf5 6f2c 1b68 bebf
00000030: 24fb df23 a524 b63f ff62 76bf bb18 a1bf
00000040: 1f71 3249 6e58 b83f ab49 33fa b082 cebf
00000050: 61aa 467a 8630 c0bf ee8c 7395 30c3 e6bf
00000060: 84d1 0145 b59f c1bf 9602 1758 81a7 d4bf
00000070: 381e 9d55 bb5d bfbf 0745 d5b1 c436 abbf
00000080: 0e2f acfa f45c e1bf d44c 6d91 2131 d03f
00000090: 51b6 7bb8 d0b0 dfbf c3a5 22d9 7461 b43f
000000a0: 1840 89c7 2c25 bd3f 3282 7777 eba7 cc3f
000000b0: 21a6 42bd 537f d5bf ce30 390c d457 e43f
000000c0: eee1 6b0b 6add d2bf c296 6b19 143c b43f
000000d0: 6299 242b e5f3 d13f 9b08 9aba 0699 bfbf
000000e0: e648 3ac2 9e8f b33f 6584 9b45 5385 d23f
000000f0: e90e 8f7e 1738 c03f 6376 c7cf d032 c2bf
-0.03007295140631243 -0.3618688538253081 -0.13368794351169086 -0.08922297378033418 -0.347974108828313 -0.11877603373428483 0.08649665952542002 -0.03339182579219901
0.0950993469909389 -0.23836338249982467 -0.12648087473401673 -0.7113268774959616 -0.1376864039372202 -0.32272370913055093 -0.12252398338488824 -0.053152224262371255
-0.542597283930691 0.25299872590876515 -0.4951669503778691 0.07961206723361784 0.11384849425780919 0.22387450536099746 -0.33589642984824947 0.6357212294328975
-0.2947640525376575 0.07904172535526313 0.2805111810033819 -0.12342874580102363 0.07641021959196656 0.28938752935034123 0.1267117851222033 -0.14217577119318311

dec.net.4.weight f8 [3, 32]
00000000: a53d 1654 1731 cbbf cca2 931a 3daf ce3f
00000010: dc29 7041 b146 b7bf f745 925e f66f c1bf
00000020: 47cd 8a45 318c c1bf 27c7 4526 fc18 c6bf
00000030: 496a 2176 818b b23f 3561 17a5 a9e4 c4bf
00000040: 829f 9184 61aa c7bf 778e 525e 8a44 9bbf
00000050: e265 0ce3 5467 b2bf 266d 7c65 3fdb db3f
00000060: 12ce 13a8 ae97 cdbf 6d12 49ae 18bd a7bf
00000070: 3237 25c6 1b2b 95bf 30eb 7073 c2d3 7abf
00000080: 3fe8 213f 7011 c8bf 7f4b 947e 0dd5 a0bf
00000090: 7a6a 3dc8 436c c43f f3e7 95c3 b1a9 cd3f
000000a0: 07a6 1112 d6b8 b9bf 68bf 0a1a 75e4 933f
000000b0: 7a4c 6a43 e95c c7bf c3a9 5bf4 d0ac c33f
000000c0: a8c7 e06a dbf3 a2bf 87c0 2355 0c7a af3f
000000d0: 1b24 2d0f 7b84 c3bf 7a75 52e4 06dc 2a3f
000000e0: 8b3d 8a78 9e6e c43f 80ef fc79 aace a73f
000000f0: 083e 329f a0eb a53f ad9a 642a f9a8 acbf
00000100: 2077 706a dc18 c53f b1f7 f153 be6c cb3f
00000110: 594d a776 6a30 c63f 4bdc 7add d633 a23f
00000120: 93d8 240b 47eb 8c3f 8b99 9fd2 9fa6 7abf
00000130: 3959 d48f 993d cfbf 0113 2d92 a5c5 c63f
00000140: fbab f775 95d5 c3bf 8b11 a03f 2f36 aabf
00000150: 5bf8 499b 7078 c8bf 7923 df17 4044 c83f
00000160: 3f46 9dff aa22 b33f 5c95 2a38 daab d23f
00000170: f5d4 948b 95e7 ae3f 9b84 ee4c f2d1 b5bf
00000180: 23b8 f09b 939d b8bf d46a 1f01 4465 ca3f
00000190: e8a0 f1a7 c142 c73f fc41 2ef0 64d7 c2bf
000001a0: 4cca 708d 8210 bfbf 711d 3a8e eaa2 c4bf
000001b0: 290f bdb5 cc96 d53f e1e6 9450 87f6 b03f
000001c0: c323 d77c 28c7 c6bf 1831 a5dd 0ca2 8d3f
000001d0: 9ebc 48eb f7cb ba3f 6450 a9ef 5f59 4abf
000001e0: 74c1 0f02 de53 c53f 461e 27f5 91da a93f
000001f0: 9735 fea2 e2e5 d5bf e835 efa6 322c c6bf
00000200: 06c9 60ee 8b7e c93f 640f d79e 1e52 b2bf
00000210: 9c0d 9d6c 00c3 a1bf b4f0 c118 b1b0 a73f
00000220: f124 d3c9 d167 c43f eea8 31b8 1f80 c2bf
00000230: 0099 444a afec c6bf 5f13 b2ec 7a69 a5bf
00000240: 90cd 3505 69e9 bbbf 38db 6bdb fb5d b23f
00000250: 1214 3fcd 02b3 c7bf 4f35 e440 a7c5 c1bf
00000260: 3989 a7d7 10d9 a63f 4866 09d9 0dc3 af3f
00000270: 7707 b7e5 505e cdbf 70b0 b18d c717 b33f
00000280: 68e2 f6dd 3efa cfbf 1756 3071 a308 cd3f
00000290: 6dda 8228 3cf9 9cbf d8cc 127f e537 70bf
000002a0: 174e 0151 a23a b53f 1563 ab28 d5e8 babf
000002b0: 1ba7 40ae 5d1c bfbf 7efd 3187 1ac6 ce3f
000002c0: 7265 999b 23c4 ca3f 8e7e 2eca 5f93 ae3f
000002d0: 6439 43d2 c1ac cabf 6cca 284a 3415 2b3f
000002e0: 1525 3e3c 8d9d bc3f ef28 06ee 77e6 c0bf
000002f0: 725f 9212 a69b d23f 29f9 920d 1248 cc3f
-0.21243564229778858 0.23972286031427925 -0.0909224304925042 -0.13622932069533508 -0.13709083457579593 -0.17263748043802105 0.0724411881832704 -0.16322823105907394
-0.18488711331451319 -0.026628648764598552 -0.07188921492743064 0.4352568141054739 -0.23119147498037812 -0.04636456611163884 -0.02067225834735282 -0.006549605916968557
-0.18803217966689265 -0.032875463201114556 0.15955397870387228 0.23174116182400403 -0.10047662678848478 0.019426183428265104 -0.18252292434462786 0.15371143275781493
-0.037016732021938836 0.06147802867224166 -0.15248049012214512 0.00020492157105859635 0.15962582479231133 0.04649861086951912 0.04281331961930951 -0.05597666399471755
0.16482119748337087 0.2142560872925379 0.1733525351870451 0.035551752601741336 0.014120631244264359 -0.006506561572655288 -0.24406737826275007 0.17790670049193838
-0.15495556125765106 -0.051194645420795735 -0.19117553312748012 0.18958283582312754 0.07474774113259118 0.29173903927797595 0.060360596932165146 -0.08523477915015791
-0.09615442807327716 0.20621538214512347 0.18172474575408804 -0.1471983120686814 -0.12134567216052367 -0.16122180885961826 0.33732908008481616 0.06626172749829663
-0.17795282455179348 0.01446924258620945 0.104674811308302 -0.0008041113317838297 0.16662192440663726 0.05049568288410149 -0.3421560851791922 -0.17322381163687273
0.19917439593843528 -0.071565545825306 -0.034690869577868017 0.04626992633072416 0.1594183192703791 -0.14453503125998374 -0.17909804464688506 -0.04182037486410794
-0.10903030755235066 0.07174657923665684 -0.18515048047825694 -0.13884440105941073 0.04462483055592021 0.06203501963018404 -0.22944079605627696 0.07458159646347595
-0.24982438886742675 0.22682612444684544 -0.02829450604687127 -0.0039595570280425915 0.08292593457854767 -0.10511524432093851 -0.12152657989704745 0.24042064286548376
0.20911069009416 0.059718125753758775 -0.2083971287415337 0.00020662558843438943 0.11177904816408486 -0.1320333397127977 0.29075004399918847 0.2209494177131515

dec.net.4.bias f8 [3]
00000000: a9e2 052b 9cc1 84bf ab06 fca7 59c7 6abf
00000010: 794e afaf 702b c5bf
-0.010134906828839734 -0.003268885717148636 -0.1653881891094107

surface.0.net.nvp_1.f_log_s.net.0.weight f8 [12, 3]
00000000: 3f3f 2705 9a30 cd3f 9e62 a037 7cfa 83bf
00000010: 8d11 f02a e76b b53f 9df0 ace9 d003 c2bf
00000020: c830 0435 5685 ae3f 42cf 1c6c 9712 d23f
00000030: f23c c0b8 68e2 d23f 5a41 5c86 f661 b43f
00000040: 62b7 f8b6 be10 b3bf 6939 6914 6a81 ce3f
00000050: 3887 90fa b566 aabf 3e84 c4ee 198c b3bf
00000060: 929b a289 bfad bebf feb9 005d 8b23 b43f
00000070: ce5e 060a 341c d3bf 87db 39bc f603 9bbf
00000080: 2d78 c1f0 5772 b6bf b18f 11d0 a532 b5bf
00000090: 4fc4 0ef2 040b c33f 98bb 154a 904c 943f
000000a0: 51b1 b686 a8b3 b3bf c5b1 b880 5670 c23f
000000b0: 0108 c850 3a92 cfbf 3c49 8f12 687e b9bf
000000c0: 5835 0fe7 ef90 95bf 781e f93f c8fb c9bf
000000d0: 137a e0e4 afd1 c0bf 008d e3c6 9366 cb3f
000000e0: 2e5a 15d8 5f50 9fbf 6308 251b f98f b13f
000000f0: 81dd 2fff d1d4 cb3f 630e 7f9c 56e8 cd3f
00000100: 5512 68a7 b015 b63f fe64 046e 4f83 a1bf
00000110: 7d1b 4293 c038 bfbf 2066 9265 abb5 c7bf
0.22804570438028723 -0.009755106399141508 0.08367771909985873 -0.14074145708025734 0.05961102864429929 0.2823847347055911 0.2950689129074383 0.07961979656488918
-0.07447425810889066 0.23832441326744494 -0.051564871632093945 -0.07635652617729335 -0.11983868704065362 0.07866736431672192 -0.29859639147751416 -0.026382308233646092
-0.08768224361253436 -0.08280407266425872 0.14877378291342544 0.019823317071707786 -0.076960118187974 0.14405328068950332 -0.24665001816180168 -0.09958506062620115
-0.021060703733202985 -0.2029962837570911 -0.1313991420328909 0.2140679093491613 -0.030580041469273116 0.06860310471259505 0.21743226013471076 0.23365290299817607
0.08626846396516304 -0.034204942874746166 -0.1219597205655258 -0.1852316137272263

surface.0.net.nvp_1.f_log_s.net.0.bias f8 [12]
00000000: 37f8 86bb d353 b13f a823 23a7 3614 803f
00000010: 0580 a439 4e7b a2bf 9847 65c4 ce05 abbf
00000020: b86d 97df 3f6f bb3f f30f 6868 1703 b7bf
00000030: 2862 1200 a47a b6bf 6642 a80c bc6d b7bf
00000040: e1a9 2ecb 236c b4bf 99b3 c80e 6e4a af3f
00000050: 286c 9742 7d59 b33f fef9 174c fbdb bfbf
0.0676853497343196 0.007851054168343044 -0.03609699681896931 -0.05277868411452785 0.10716628273751538 -0.08989092158304839 -0.08780884744408779 -0.091518166628029
-0.07977508268837809 0.06111473017185815 0.07558424831169985 -0.12445040328746157
